icv/W06_for_students/cifar_net_100e_channels-20.pth (torch, 278658 bytes, 10 tensors)

conv1.weight f4 [20, 3, 5, 5]
00000000: 477b 7f3d 2a40 193d 4b5b 573d f493 d23d
00000010: 227f b8bd c7fd 0f3d 661d cebc 720c d33d
00000020: 750d 94bc 3415 bbbd f6f8 d13d a606 a43d
00000030: ea6d d63c 9b7f 85bd c03b 5e3c 4d7b e5bd
00000040: ce11 9f3d 6550 b43c cdab e4bd 6c23 3dbd
00000050: b9ce 293c 83ac aabc 6457 7bbd 48cc a5bc
00000060: 1a23 ca3d 44a5 57bd a0fc 403d 9e5a 4c3d
00000070: f6f3 24bd 6d10 4dbd 6404 8fbd 86b7 df3d
00000080: 6b44 d13c 1a21 7d3c bc41 b8bd b484 bb3d
00000090: d838 ce3d a974 8ebd 9704 3ebc eb9c d6bd
000000a0: 4cd6 b1bd e1c5 a73d b5b2 b33d 01ee dcbd
000000b0: 2b6a 6dbd 9ee9 45bd d26f 56bd 0ddb 00bd
000000c0: df5a f0bb 0fc3 cabd 5c4e 2f3c b2d5 863a
000000d0: 0ff7 9cbc 6bc9 933b 31a0 e43b b03c 54bd
000000e0: 640e 863b 9628 cb3d 58ca f5bc 443b 8bbc
000000f0: e8d2 a03c 2ea9 a6bd a653 193d 0ad8 b3bd
00000100: 648b d03d 4f6b 2cbd c707 173d d73f d4bd
00000110: 2c23 b0bb 761c 2f3d 700f 983c af59 b9bd
00000120: a47f 0f3c 0884 e93c 0587 dcbd 7d6d f13c
00000130: f1a8 443a 2655 bfbd 2747 763d e80a 76bd
00000140: dec2 d8bd dec3 bd3b 802c b8bd b80b 433d
00000150: 3627 67bd b98c 93bd 584a c9bd 6acd 723c
00000160: 5fbd a43d 6f6b 953d 7b5d c83d 03e5 22bd
00000170: 2e29 87bc 2b00 35bc 1a83 3e3d e6e0 d93d
00000180: 990d 8b3d 54f7 f2bb 44ff b7bd 9b3d 33bd
00000190: 73b1 743d b80f 163d 5c2a a6bc dcc6 da3d
000001a0: 18ab 123d 2894 b8bd 4a48 9e3d 7609 a0bd
000001b0: 111b 5fbd 410a 983d 5474 00bd 9dd4 50bd
000001c0: a36a cd3d 6ecd 4fbd 1be9 aabc cd46 943d
000001d0: 065c b5bd da41 46bd 9a1a c73d 415b cebd
000001e0: 93ed 363d 10ff 5f3d 1ac8 c03c 32f0 c9bd
000001f0: e3c9 1a3d c2f6 a0bc 4be3 9cbd d58b dc3c
00000200: ae63 9b3d 76e1 dc3d b36e 93bd 992d d1bd
00000210: 67ac 31bc d003 6fbb cd4d 86bd 166c 09bc
00000220: d8ad a8bc 6977 74bd 632a c2bd 2971 893d
00000230: a8d1 ca3d aa05 be3d ab39 72bc 02cf 98bd
00000240: a7d5 00bc 6595 693d 93bc 2fbc 43f6 6d3d
00000250: 1e8b a13d 48d3 663d 3f98 07bd c27d 88bc
00000260: 5075 c23d 2104 653d f327 6cbd 8878 76b8
00000270: eb08 6b3d ac46 003d 3f67 c2bc 85f8 e53b
00000280: f618 693d 28c5 80bd a6cd 613d b256 803b
00000290: 6fb5 93bd 0d35 84bc 9770 313d f3de b1bd
000002a0: 7c33 ebbd e19c ebbd 706f d83c e00f e93d
000002b0: e4b0 143d 3d75 313d 91c2 6abd b33a 343d
000002c0: 0f95 81bd 4223 bc3d 4095 59bc 819b d63d
000002d0: dd67 cf3d e44b 02bc eed6 52bd 59ae c23d
000002e0: 252e 60bd 7828 dabd 9ca2 d23c 591f 483c
000002f0: 7e8d c83d 33b4 443c c2be b53d 8307 8abc
00000300: b6cf 083d 2828 d83d 2763 acbc 8679 b63d
00000310: 4060 37bd 8239 4bbd 9034 3f3d 1842 c23d
00000320: b7d7 813d 5985 27bd dc18 be3d 1e35 9f3d
00000330: 38ec abbc 9466 21bd 79c1 47bc 4c8c 06bd
00000340: 3165 c4bd 883b 593b 4ceb 48bd 37ce 3ebd
00000350: 2fd3 15bd 8523 e8bd 9772 2e3d d606 8b3d
00000360: 64f7 4e3d 5c9b 0d3c e80c c63d e912 a9bb
00000370: e633 8d3c f51f 29bd 665f cbbd 6265 dbbd
00000380: 2ee6 cbbc 1c48 b2bd 81ec 983b d0a5 bc3d
00000390: ed98 60bd 6209 863d 11ec 4bbc 40db 95bc
000003a0: 902f ce3d c492 8bbc f463 56bd 3d45 9bbd
000003b0: 0953 1b3b fa6e e9bd 359a 7bbd 9296 dc3d
000003c0: 5065 7ebd 683a bdbd b2d0 b9bd 8c22 cfbd
000003d0: 9845 273d 9dd7 65bb 44e9 e23d 4343 d1bd
000003e0: c03d 423d afec 6bbd 7e8f 773d 8764 67bd
000003f0: 292c 843d 2c6b ea3b b17e e83c ab45 9fbd
0.062373426 0.037414707 0.052577298 0.10282126 -0.09008624 0.03515413 -0.025160503 0.10305108
-0.018072823 -0.091349036 0.10252564 0.080090806 0.026175458 -0.065184794 0.01356405 -0.112051584
0.07767068 0.022010991 -0.11165581 -0.04617636 0.010364228 -0.020834213 -0.06136264 -0.02023901
0.09869976 -0.052647844 0.047115922 0.049891107 -0.04027172 -0.050064493 -0.06983259 0.10923676
0.02554532 0.015449787 -0.08996913 0.091561705 0.10069436 -0.06955845 -0.011597774 -0.104791485
-0.08683452 0.08192039 0.0877432 -0.10787583 -0.057962578 -0.048318498 -0.052352734 -0.031458903
-0.0073350514 -0.09900486 0.010699835 0.0010287075 -0.019160775 0.004510095 0.006977104 -0.05181569
0.004091071 0.099198505 -0.030003712 -0.016996033 0.019631818 -0.08137737 0.03743329 -0.087814406
0.10182837 -0.042094525 0.03687265 -0.10363739 -0.0053752866 0.04275175 0.018562049 -0.09050309
0.008758459 0.02850534 -0.107679404 0.029471153 0.0007501981 -0.09342413 0.06012645 -0.060068995
-0.10584043 0.0057911715 -0.08992863 0.047618598 -0.05643388 -0.07204575 -0.09828633 0.014819482
0.08043932 0.07295882 0.09783455 -0.039769184 -0.016499128 -0.011047403 0.046511747 0.10638599
0.06789703 -0.0074147377 -0.08984235 -0.043759923 0.05973954 0.036636084 -0.02028387 0.10682461
0.0358077 -0.090126336 0.07728632 -0.078143045 -0.054469172 0.07423831 -0.03136094 -0.050984014
0.10030105 -0.050733022 -0.020863106 0.07240067 -0.08855443 -0.048402645 0.09721871 -0.10075999
0.044660162 0.054686606 0.023532916 -0.09860267 0.03779019 -0.019648913 -0.0766054 0.026922146
0.07587372 0.10785191 -0.071988486 -0.10213775 -0.010844327 -0.0036470778 -0.06557808 -0.008387586
-0.020590708 -0.05968419 -0.09480741 0.06711037 0.0990327 0.09278424 -0.014784257 -0.074613586
-0.007863439 0.05702724 -0.010726112 0.05809618 0.078878626 0.056353837 -0.033104178 -0.016661528
0.09495032 0.05591214 -0.057655286 -5.8763224e-05 0.05738155 0.031317398 -0.023730872 0.007018151
0.05690857 -0.062876046 0.055127762 0.003916585 -0.0721234 -0.016138578 0.043320265 -0.08685102
-0.11484429 -0.11504532 0.026420325 0.11379981 0.03630151 0.043324698 -0.05731446 0.044001292
-0.06327259 0.091864124 -0.013280213 0.10478879 0.10127232 -0.007952664 -0.051474504 0.095059104
-0.054731507 -0.1065225 0.025712304 0.012214505 0.097926125 0.0120058535 0.08874275 -0.016849285
0.033401214 0.10554534 -0.021043373 0.089098975 -0.044769526 -0.04961539 0.046680987 0.09485263
0.063399725 -0.040898655 0.09282085 0.07773803 -0.020986661 -0.039404467 -0.012192124 -0.03284864
-0.09589613 0.0033147056 -0.04905252 -0.04658338 -0.036578353 -0.113349 0.04258975 0.06788413
0.0505289 0.008642998 0.096704304 -0.005159725 0.017236661 -0.041290242 -0.09930305 -0.107126966
-0.024890032 -0.0870516 0.0046668653 0.09211314 -0.05483334 0.065447584 -0.012446419 -0.018293023
0.100676656 -0.017037757 -0.052341416 -0.075815655 0.0023700616 -0.1139812 -0.06142636 0.107709065
-0.062108338 -0.09239656 -0.090730086 -0.10114011 0.040837854 -0.0035071142 0.11079648 -0.10217907
0.04742217 -0.057598766 0.06043958 -0.056492355 0.064537354 0.007153889 0.028380724 -0.0777696

conv1.bias f4 [20]
00000000: 051b 6a3d a303 be3c a5c5 8bbd d040 b9bd
00000010: ee42 793d aaf7 d8bc 42b9 cabd 0ead debd
00000020: 179b 9ebd 1cc6 8a3d a4ad 503c fe72 afbd
00000030: d22d 9dbc 0cb3 95bd 3750 983d 5b1b b23d
00000040: ecd6 b8bd 98ed ea3c 34de 92bc 10ae c8bd
0.057154674 0.023195093 -0.06824807 -0.09045565 0.060854845 -0.026485283 -0.098986164 -0.10872851
-0.07744425 0.067760676 0.012736712 -0.08566855 -0.019186888 -0.07309541 0.07437175 0.08696624
-0.09025368 0.028677747 -0.01792822 -0.09798825

conv2.weight f4 [16, 20, 5, 5]
00000000: 39e0 2dbc 0c73 f13c 27a4 0abd 1a43 ef3c
00000010: a57b 153c c08a 5cba 3fd5 e8bc a2d7 05bd
00000020: 9342 283d 2bb6 f6bc de0c 213c 9612 b5ba
00000030: f324 13bd dce3 1f3d e05c 09bd 7713 d1bb
00000040: 3bea 3e3c ab0c adbb 78a8 0b3d fb7c 2bbd
00000050: 6c54 18bc 19b8 a1bc bd03 f63c 3546 20bd
00000060: 2a70 2c3c 0406 a4bc 33e7 92bc afe7 02bb
00000070: e2dc 023d 1e1a 863c dff0 3e3c bef1 a13c
00000080: f56f 25bc 8f0f eabc 4c35 2d3d f048 37b9
00000090: 13f9 183d cd01 033c c0f3 b1bc 0fc5 463c
000000a0: 8b58 313c f20a cb3c ee75 24bd 9d20 fdbc
000000b0: e7aa e3bc ae38 0cbd 1123 0bbc 667a 21bd
000000c0: d2ba ba3c 8d53 123c a61d 1fba e5ac 18bd
000000d0: 126f d9bb b81f da3b 46f9 21bd 008f bebb
000000e0: be77 71bb d216 c5bb 8ee9 37bc e73d d53c
000000f0: d93a afbc 87d3 433c 44e1 fa3c 86d7 c5bc
00000100: fb97 1a3d d932 15bd c97f be3c 46c0 c4bc
00000110: 1641 14bd 83d8 e4bc 850a c2bc eb1e 30bd
00000120: b5fd 10bd e03b 91bc eaf6 ff3c 027e 94bc
00000130: 3f84 1e3d 7bfc 123d 0fce 153d a932 c13c
00000140: 91fc ebbb b021 093c 971b c9ba 5378 c2bc
00000150: d744 00bd c4c7 13bb 6877 923c d736 75bc
00000160: 8239 a53c 3026 003d c667 efbc 7dfe fd3b
00000170: 1d0d 1e3b 343f 30ba b25d 443c 2284 91bc
00000180: 275a c33b 49f6 3bbc 690e b03c a5ff f9bc
00000190: 9aeb 933c b8da 2bbd 1fc7 c83c ac52 0c3d
000001a0: 0139 b13c eb3e ffbc 6c6d 26bd 9fd0 31bc
000001b0: a023 913c 7ab6 193d 8b7b 1d3d a66b b83c
000001c0: aa90 c13c 95cc 29bd 4d8f 00bd b59b 33bc
000001d0: 19a8 3cbc ca07 8abc 509f 1abd 84c5 e23c
000001e0: 45e2 65bb 1837 00bd fbf2 2b3d d990 79bc
000001f0: 4293 89bc 585e acbb 5483 85bb b1ae 2d3b
00000200: 9d98 7a3a d651 e13c f6dc 85bc c930 46bc
00000210: 6760 a3bc 3098 e53c f5c8 443c 0cb3 c4bb
00000220: 63f2 babb dd53 1abd 4473 223d 3fb5 2a3d
00000230: 3ba3 1cbb 8598 313c ffc1 403c b7ae 213d
00000240: a711 66bc cb0b 37bd 5d5b 843c 97d2 e13a
00000250: 16f9 063c daa7 2a3d b7d5 1dbd 1689 b5bc
00000260: c2f5 803c 784d d7bc ba98 6b3c 24fa 823c
00000270: 54cc 22bc 0ee2 fe3c d762 1d3c 946d 2d3c
00000280: a4e1 21bd 638e eabc 365b 6bbb 310b 0f3b
00000290: 8080 363d 35f6 883c 64e9 25bd 07a6 20bd
000002a0: 5120 323b 6f09 2bba e229 253d f161 1e3d
000002b0: 2d18 ebbb 33a2 f93c 77ce 66bc 7660 a83b
000002c0: dbe7 2ebc e5a7 a7bc dfb5 273c cef7 a9bc
000002d0: e24a 253d 8eb5 723c 191a c7bb 0624 dd3c
000002e0: c5d8 063d 1ecd 913b 6914 82bc 0576 c83c
000002f0: 13d4 bdbc 630e 2bbd 5427 1cbc 465c 2aba
00000300: 70fa bc3c 0022 27bc a872 e53c 40ed bebc
00000310: 979f beba 7cdd df3c ec87 bb3c 8e57 163d
00000320: a413 72bb 54a4 29bd 817e 483c d3b0 7c3c
00000330: 4e10 97bb 4372 96bb f4a4 ec3c 56c5 c43c
00000340: c518 76bc 12e8 18bb b107 f83c 78d6 343d
00000350: 8803 163d 84f3 35bd a6e0 1e3d b275 aabc
00000360: 6286 8ebc a70c cfba e311 adbc 014e 19bd
00000370: b09d 1dbd 47f1 1d3d 56d3 41bb 322c d1bc
00000380: a7ed 503c 25d1 8eba 3553 97bb 98ef a7bc
00000390: 1358 1cbc 6a4a 16bd edee 343d 4ecb f43c
000003a0: 36f9 713c 3f32 8c3c ddc5 1bbd 0798 2bbc
000003b0: 2d9a 983c e708 0ebc 1514 223d f4fe a53a
000003c0: 87cc ffbc 9cbb 23bd b5ec 903c 9f0e 55bb
000003d0: 6e2c a1bc 8ddc 8a3c cf7e 1f3d e89d 03bd
000003e0: 961b d3bc 7e77 343d e000 59bc 603d 73bc
000003f0: e043 083d bdae 4bbc 6b57 a43c 3c53 d2bc
-0.010612541 0.029473804 -0.033847954 0.029206801 0.009123717 -0.00084130093 -0.028421996 -0.032676347
0.041079115 -0.030116161 0.009829728 -0.0013814743 -0.03592391 0.039035663 -0.033535838 -0.006380494
0.011652525 -0.005281051 0.03409621 -0.041867238 -0.0092974715 -0.019741105 0.03003108 -0.039129455
0.010524789 -0.0200224 -0.01793251 -0.001997452 0.03194893 0.016369876 0.011654108 0.019768592
-0.010097493 -0.028571872 0.042287156 -0.00017479411 0.03734691 0.007996035 -0.021722674 0.012131943
0.010824333 0.024785493 -0.04015153 -0.03089934 -0.027791454 -0.03423374 -0.008492247 -0.03942337
0.022794161 0.008931053 -0.00060697866 -0.03727426 -0.006635555 0.006656613 -0.039544366 -0.005815387
-0.0036845054 -0.0060146833 -0.011225117 0.026030494 -0.021390365 0.0119522875 0.030624993 -0.024150621
0.037742596 -0.036425445 0.023254292 -0.024017464 -0.036194883 -0.027935272 -0.023686657 -0.042998236
-0.035398204 -0.017728746 0.031245667 -0.018126491 0.03870034 0.035885315 0.036573466 0.023583727
-0.007201739 0.008369848 -0.0015343305 -0.023739016 -0.03131565 -0.002254949 0.017879203 -0.014966688
0.020169023 0.03128642 -0.029224288 0.0077512846 0.0024116703 -0.0006723285 0.011985229 -0.017763201
0.0059616747 -0.011472293 0.021491246 -0.030517409 0.01805668 -0.041956633 0.02450901 0.03425853
0.021633627 -0.031157931 -0.040631697 -0.010852962 0.017717183 0.03752754 0.038447898 0.022512268
0.023628552 -0.04145487 -0.031386662 -0.010962416 -0.011514687 -0.016849417 -0.03774959 0.027682073
-0.0035077494 -0.03130254 0.04197977 -0.015232288 -0.01679385 -0.00526027 -0.0040744934 0.002650183
0.00095594843 0.027504843 -0.016340714 -0.012096592 -0.01994343 0.02802667 0.0120108025 -0.0060027894
-0.0057051643 -0.037677635 0.039660707 0.041676756 -0.0023901004 0.010839586 0.011765002 0.03947326
-0.014042295 -0.04468898 0.016156847 0.0017228898 0.008238098 0.041663982 -0.038533892 -0.022160094
0.015742186 -0.026282057 0.014379675 0.015988417 -0.009936411 0.03111365 0.009606085 0.0105852075
-0.03952183 -0.028632348 -0.003591252 0.002182674 0.04455614 0.016718963 -0.04050578 -0.039220836
0.0027179907 -0.0006524538 0.040323146 0.038667623 -0.007174513 0.03047285 -0.014087311 0.005138452
-0.010675396 -0.0204658 0.010236233 -0.020748045 0.040354617 0.014813794 -0.006076109 0.026994716
0.03292157 0.0044495007 -0.015878873 0.024470339 -0.023172414 -0.041761767 -0.009530861 -0.0006498735
0.023068637 -0.010200977 0.028008774 -0.023306489 -0.0014543411 0.027327292 0.022891961 0.036704592
-0.0036937976 -0.04141648 0.012237192 0.015423018 -0.004610098 -0.004591258 0.02888725 0.024019878
-0.015020554 -0.0023331684 0.030277105 0.044149846 0.03662446 -0.044421688 0.03878846 -0.020808075
-0.017398063 -0.0015796617 -0.021126693 -0.037427906 -0.03848046 0.038560178 -0.002957543 -0.02553377
0.012751973 -0.001089607 -0.0046180733 -0.02049999 -0.009542483 -0.03669206 0.04417317 0.0298821
0.014768889 0.017113803 -0.038030494 -0.010473258 0.018628204 -0.008669115 0.039569933 0.0012664483
-0.031225456 -0.03997384 0.017690996 -0.0032509936 -0.019674506 0.01695087 0.038939293 -0.032133013
-0.02576999 0.04405927 -0.0132448375 -0.014846176 0.033267856 -0.012431798 0.020061215 -0.025674455

conv2.bias f4 [16]
00000000: 1f98 d03c 0289 f13a ed39 2ebd 4539 083c
00000010: 118c 33bd 10f0 0abd d101 1abc e28e 8dbc
00000020: f52e 14bd d21b 28bd 5bbe a43c 4523 033d
00000030: 710d a9bb df65 2bbd af49 32bc e1db 883b
0.025463162 0.0018427672 -0.04253571 0.008314435 -0.04383475 -0.033920348 -0.009399847 -0.017280046
-0.036177594 -0.041042157 0.0201103 0.032016058 -0.005159073 -0.0418452 -0.010881825 0.0041766022

fc1.weight f4 [120, 400]
00000000: e537 063d aaa2 26bd 97ea ef3c cd9e acba
00000010: baf9 c5bc b813 1b3d addc 3a3d e3ee 45bd
00000020: 0074 7d3b 8bff 043d 9aeb dbbc c006 fbbb
00000030: 8db6 433d 6abf 8cbc eae7 d73c b0ff 42bd
00000040: cd97 22bb fa09 0d3d 973a 26bd 927a 03bd
00000050: 7db7 84bc 67e7 9e3a 43f3 95bc 0071 8bbc
00000060: 8f79 2d3d d0ff e43c fb0f 3cbd f3c9 adbb
00000070: 5a39 d8bc 9a1e dabb 67ba da3c 13a6 27bc
00000080: 0018 66bb e867 46bd 955c 2bbd 05c2 333d
00000090: 2dbc ca3c f3e5 43bc 637e 043d 670e 35bd
000000a0: 2dc4 1f3c f0de 043d 9a51 4fba e8e9 003d
000000b0: 8562 1c3d cdad 53bb 0782 3bbd 9a1a 7e3b
000000c0: ea32 e03c c018 5cbc 3b06 333d a0b6 03bd
000000d0: cd58 5c3b 7d33 fcbc d3a8 613c 2afb b4bc
000000e0: a05c c73c c885 2fbd b7d3 f7bc b330 ee3b
000000f0: 8f29 47bd cd38 8b3c 0090 d9bc e757 843b
00000100: 1aef 323c 8dc6 f33b 8ad8 843c 3070 81bc
00000110: 9077 09bd 856b 493d 9a63 b03a bd02 3b3d
00000120: b3f8 393c 837d 96bc d3f3 79bc 9afe b4bc
00000130: fa62 333d 4780 c3bc 0ae9 e0bc 4098 02bc
00000140: 7df4 01bd 05da 07bd a0b0 033d 9b30 073d
00000150: 47f6 a6bc 5d5d 383d cd45 453b 3acd 0a3d
00000160: 2020 003c b71e 393d 374f 273d 7deb 33bd
00000170: b08e cb3c 6087 073d ba46 2dbd 9872 2dbd
00000180: bddd df3c 678b 82bc 9b12 113d b7ef f3bc
00000190: 4d4f 6abb 75f7 2fbd fd1b 46bd 035a 16bd
000001a0: a783 8d3c 33d4 49bb 9342 38bc da89 b9bb
000001b0: 4398 d83c faed 3abd 5a70 e23b eb24 373d
000001c0: 2d84 94bc da52 e53c 2708 713c 0a88 d63c
000001d0: 5d0d 8dbc 9a57 78bc 73b3 17bc 33a0 2d3c
000001e0: 17ac 113d a767 e5bc 9d0f 00bd 4d8a 6abb
000001f0: cfb3 0b3d 6d47 57bc 370e 94bc 8074 8abb
00000200: c5dd 3fbd 338d e03a 8009 383b c823 173d
00000210: 10b5 f93c 171b 4c3d 47c8 80bc 47bf c93c
00000220: fa0c 2dbd c357 9abc 0558 1bbd 7b78 41bd
00000230: 2040 d63c 9a4d 04bc ca47 f3bc 9a67 373b
00000240: 92a6 1dbd 9bc3 1ebd 2fb5 05bd 58a4 11bd
00000250: ea88 82bc da8e 723c 27e8 e7bc a54d 433d
00000260: ca12 9bbc 5ae8 64bc 0d16 f73c d7dd d03c
00000270: 7a66 53bc f0cf 1fbd 0d4d 8b3c 97dd 27bd
00000280: b331 643c 9a55 ae3a 1794 ce3c 1d4a 40bd
00000290: 20bb a63c 5a36 8b3c 67bc f9bc eda2 383c
000002a0: 0f8e 253d f080 3d3d f06d 2ebd b094 c13c
000002b0: a085 61bc f33f 18bd 50ef 40bd 0367 c33c
000002c0: 677c b03b e707 5abc 80d2 71bc 4338 4abd
000002d0: 0826 0fbd dbca 083d 73be e53b 2d66 473d
000002e0: 63d8 edbc 47a8 1b3d c51e 2dbd bab7 903c
000002f0: 0081 4dbb 3044 c6bc 9b3b 0f3d 9a95 dfbb
00000300: 33d7 bdbc cab3 a13c d0bd 33bd 8a4c 90bc
00000310: f3e6 923c 9721 1c3d 2586 09bd 00c0 67ba
00000320: 2345 b03c 0f28 2cbd e0c4 f3bc 7289 1bbd
00000330: 8a3d 353d 5a4f 133d 05be 3e3d 5703 edbc
00000340: 6342 8fbc 7d47 af3c e76c 1dbc b3b7 303c
00000350: 9b71 33bd 63d4 e2bc 00be 20bc 5be4 0abd
00000360: bd2b fdbc 77b3 b73c 43ee b63c 338b 493b
00000370: e70b 14bc 904f f23c 8abb 1ebd c3d3 d83c
00000380: fab2 f63c bbb7 0d3d 073e 133d 8d92 9e3b
00000390: cd7d 8d3b 0dff a93c 4b3f 0b3d 2302 2f3d
000003a0: 7dcf 28bd 9311 babc 4d7f 62bc 3002 39bd
000003b0: f3a8 7cbc 1ad4 f3bb eab0 b2bc 13c8 173c
000003c0: 8521 433d 4095 b0bb 833a 1e3d 675c a1ba
000003d0: c5aa 4bbd b50a 4cbd adcb 94bc 10d4 8e3c
000003e0: 9b30 433d 85d7 19bd 5382 7cbc bd3c 4a3d
000003f0: cdf9 2e3b 27c9 f43c 80fe 08bd a702 c8bc
0.03276815 -0.040682472 0.029286666 -0.0013169885 -0.02416693 0.037860602 0.04562061 -0.048323523
0.0038673878 0.032470267 -0.026845742 -0.007660717 0.047781516 -0.017181117 0.026355702 -0.047607124
-0.0024809719 0.034433343 -0.04058322 -0.032099314 -0.016200775 0.0012123407 -0.018304473 -0.017021656
0.042352255 0.027954012 -0.045913678 -0.0053036152 -0.026394535 -0.00665648 0.026700212 -0.010232466
-0.003510952 -0.048438936 -0.04183634 0.043886203 0.024747932 -0.01195668 0.032347094 -0.04420319
0.009751362 0.032439172 -0.0007908583 0.03147307 0.038179893 -0.0032299638 -0.0457783 0.003877318
0.027368028 -0.013433635 0.043707114 -0.032156587 0.0033622265 -0.03078627 0.013773161 -0.02209242
0.02433616 -0.042852193 -0.03025232 0.007268989 -0.048623618 0.016994858 -0.026557922 0.004038799
0.010921264 0.0074394406 0.016216535 -0.015800565 -0.03356129 0.049174804 0.0013457418 0.04565691
0.011350798 -0.018370396 -0.015255886 -0.02209406 0.043795563 -0.023864878 -0.027454872 -0.00797087
-0.031727303 -0.033166904 0.032150865 0.03300534 -0.020381106 0.045010913 0.003010142 0.033887126
0.007820159 0.045195308 0.04084703 -0.04392575 0.024848312 0.033088088 -0.04230378 -0.042345613
0.027327413 -0.015935613 0.035418134 -0.02977739 -0.0035752833 -0.042960603 -0.048366535 -0.036706936
0.01727469 -0.0030796647 -0.011246341 -0.005662185 0.026439792 -0.04563711 0.006910366 0.044712942
-0.018129433 0.027993608 0.014711416 0.026187915 -0.017218286 -0.015157605 -0.009259093 0.0105972765
0.03556451 -0.028003527 -0.03126489 -0.0035788 0.034107026 -0.013139588 -0.018073184 -0.0042253137
-0.046842355 0.0017131924 0.0028081834 0.036899358 0.030481845 0.049830522 -0.0157205 0.024627341
-0.042248704 -0.018840676 -0.03792574 -0.04723404 0.026153624 -0.008075142 -0.029697318 0.0027985335
-0.038488932 -0.038760763 -0.032643493 -0.03555712 -0.015934426 0.014804566 -0.028308941 0.04768147
-0.018929858 -0.013971413 0.030161882 0.025496406 -0.01290285 -0.039016664 0.017004514 -0.04098281
0.013927865 0.0013300658 0.0252171 -0.04694568 0.0203529 0.01699369 -0.030485345 0.011269313
0.04041868 0.046265543 -0.042585313 0.02363047 -0.013764769 -0.03717036 -0.047103226 0.02385283
0.0053859237 -0.013307548 -0.01475966 -0.04937006 -0.03494838 0.033396583 0.0070112287 0.048681427
-0.029033845 0.03800228 -0.042265672 0.017665733 -0.0031357408 -0.024202436 0.034968954 -0.006823254
-0.023173904 0.01973905 -0.04388219 -0.017614622 0.01793239 0.03811797 -0.033575196 -0.0008840561
0.021517342 -0.04203039 -0.029756963 -0.037972875 0.04424814 0.035964347 0.046567935 -0.028932257
-0.01748771 0.021396393 -0.009608484 0.010785985 -0.043809514 -0.027689165 -0.0098109245 -0.033909183
-0.030904645 0.022424443 0.022330409 0.0030753135 -0.009036041 0.029578954 -0.03875307 0.026468163
0.03011464 0.034599047 0.035947826 0.0048392476 0.004317975 0.0207515 0.033995908 0.042726647
-0.0412135 -0.022713458 -0.013824296 -0.0451681 -0.01542114 -0.007441056 -0.021812875 0.00926401
0.04763939 -0.0053888857 0.03863002 -0.0012310863 -0.049723405 -0.0498149 -0.018163526 0.017435104
0.047653776 -0.03755905 -0.015411931 0.04937433 0.0026699186 0.029881073 -0.033445835 -0.024415327

fc1.bias f4 [120]
00000000: 1092 eb3c 2a2b 92bc e706 b3bc dabe b4bc
00000010: 5b32 3e3d e749 ffbc 30bf c83c c0c4 fcbb
00000020: 7d6c 0c3d 037b 413d d392 8dbc 4791 a8bc
00000030: 3395 86ba bd09 8e3c 1324 053d 9a4a 363d
00000040: 0a0b 123d 93ca 6e3c 1aa3 a23b ba9c 0fbd
00000050: 00f2 4d3b 3fdf 35bd 709f e0bc 2249 29bd
00000060: e7fd 8b3b fb5c 1b3d 007c 033b 8386 e8bc
00000070: c5a9 1f3d dab7 dbbb 4ddd 263d 33bb b3b9
00000080: e0e3 b8bc 90ee 9dbc dbab 3b3d 23f2 063d
00000090: c8d1 2a3d 3333 c9b6 d36e 34bc 2792 a53b
000000a0: b0e8 24bd e7ba 47bd 0744 8e3c ddc5 183d
000000b0: e700 253b f0af 97bc 80ab 10bc 1ad3 523c
000000c0: ed89 b4bc c029 dabc cde0 e8ba ca4d 42bd
000000d0: f3fd 3d3d 00cf 8a3b cdb6 48bd 1bed 2e3d
000000e0: b023 913c 5d13 a6bc b002 88bc a5b3 043d
000000f0: b031 e43c 07a2 b13c 0717 2f3c 8347 b63c
00000100: 876b 223d 3acb 1abd d0af 87bc 5344 25bc
00000110: 438f 26bd 9332 403d 5053 93bc 3d8d d8bc
00000120: bac7 383c c017 e4bc 3dd9 8fbc 20f2 173d
00000130: 5d84 c7bc 8d3f 99bb 733a 81bb af07 203d
00000140: 9a1a 3a3b db75 013d a0a8 383c e32d b33c
00000150: 88a9 29bd 57e2 f23c dd10 0dbd eab4 c5bc
00000160: edba cf3c d395 57bc e7a1 09bc a5c8 3c3d
00000170: d282 113d 408c 83bb 33db 2bb9 a53c 42bd
00000180: 0778 d63c 9fe0 06bd 3829 05bd c3f5 13bd
00000190: adc8 073d f351 d9bb 4d35 b93c 4ab2 cabc
000001a0: 80b8 aa3b 6317 44bd 7704 cd3c 3040 c0bc
000001b0: a746 113d fa7f 0ebd d3ae ee3c ad47 b13c
000001c0: 8034 c4bb dbab 32bd a762 ca3b 83da 003d
000001d0: 00bf 9aba 9317 8c3c 8fbd 21bd a38c aabc
0.028756171 -0.017842848 -0.021853877 -0.022063661 0.04643474 -0.03116317 0.024505228 -0.007713884
0.03428315 0.047236454 -0.017281925 -0.020577086 -0.0010267854 0.017338628 0.032505106 0.04450474
0.03565506 0.014574665 0.004963291 -0.035061575 0.003142476 -0.044402357 -0.027419776 -0.04132951
0.004272211 0.03793047 0.0020062923 -0.028384453 0.038980264 -0.0067052664 0.040738393 -0.00034281015
-0.022569597 -0.019278795 0.04581819 0.032945763 0.04170397 -5.996227e-06 -0.011012751 0.005052823
-0.04026097 -0.04876223 0.017366422 0.037298072 0.002517754 -0.01851651 -0.008829951 0.012867713
-0.022038424 -0.026631236 -0.0017767191 -0.047437467 0.046384763 0.004236102 -0.049002457 0.04270659
0.017717212 -0.020272905 -0.016602844 0.032397885 0.027855724 0.021683706 0.0106866425 0.022250896
0.039653327 -0.03779147 -0.016563326 -0.010087091 -0.04066397 0.04692323 -0.017984062 -0.026434535
0.011278087 -0.027843356 -0.017559642 0.037096143 -0.024355108 -0.0046767653 -0.0039437353 0.039069828
0.0028397203 0.031606536 0.011270672 0.021872466 -0.041421443 0.029648943 -0.03443991 -0.024134118
0.025357688 -0.0131582795 -0.008400417 0.046089787 0.03552515 -0.004014522 -0.00016389489 -0.047421116
0.02618028 -0.03292906 -0.032510012 -0.03612305 0.033150364 -0.0066320836 0.022608424 -0.024743218
0.0052099824 -0.047873866 0.025026543 -0.023468107 0.03546777 -0.034790017 0.029136097 0.021640623
-0.005987704 -0.043620925 0.006176311 0.03145839 -0.001180619 0.017101085 -0.039487418 -0.020819014

fc2.weight f4 [84, 120]
00000000: 036d f43c 7383 b9bd 072d 7a3d e5b8 51bd
00000010: e610 7abb 4129 7f3d cd8d 9abd da89 93bd
00000020: 1848 7ebb 3cb8 863d 6c51 92bd 9278 98bd
00000030: 651a b4bd 6db7 793d ecbe 39bd 52b9 253d
00000040: 928a 8f3d f0be 68bd 8917 cb3c 8ac4 4cbd
00000050: 6f01 1d3c c9cc 983d 7187 36bc 35dd c4bc
00000060: 1f9a 8fbd b661 50bc e8b0 233d 405a 6cbd
00000070: 0a93 853d a424 983b 6f2c 613d 7b5e 953d
00000080: c15c 963b c2ce 97bd 7183 02bc dc90 ec3c
00000090: 5183 b43d a486 0abd 2632 a1bd 6596 57bc
000000a0: 167c 873d b9e2 68bd 1478 b23d 6564 ed3c
000000b0: 930c 26bd cce5 9d3d b903 62bc c695 863d
000000c0: ef1b 77bd c5e0 a2bd 89a8 e03c bc7d a1bb
000000d0: 8198 a83d c2cb 353c 2dbb 9f3d 59dc 0bbd
000000e0: 5bda 4fbd b537 99bd 55de 513c 7f18 d6bc
000000f0: f026 233d 6fd9 a03d ec0e f63b 72b2 c6bc
00000100: 5aea 47bd b84b 523d 5fbc aebd a3d0 03bd
00000110: a027 5cbd 3e4d 3fbc b3a6 45bc ec6c 52bc
00000120: 429d 233d 0f49 8bbd 2918 7f3d acfb 4abd
00000130: a752 d53c 7b2d 763d 0a99 ddbc 2b72 7fbd
00000140: 730f 613d 13b0 8bba a59f 563d e36b 2fbd
00000150: 6439 80bd c488 60bd aa39 20bd 89b6 b4bd
00000160: 7ba2 7ebd 1123 3f3d d434 9bbd 5541 a03d
00000170: e929 b73c 1cf5 a23d 659a a2bd e333 a63d
00000180: ed18 b53d 793c 8f3c a5d6 9bbd 2e5b 553d
00000190: 6dbc 13bc 3022 3bbc 1182 bdbb 85a7 88bc
000001a0: fe20 153b abf2 b03d 2c65 433c 921f 76bd
000001b0: 2070 5b3d 364b 88bd b928 a03d 2525 87bc
000001c0: edd0 97bd 7f23 853b dda5 b7bd b6c0 fbbc
000001d0: 4e2f d2bc b86b 063d d940 9e3c e2a0 a6bd
000001e0: b34d 70bd 8c8a 60bd 3983 f33b 14e4 6f3d
000001f0: 774e 923d 1a18 bbbc ae91 b5bd 68a3 96bd
00000200: 827e b2bc 27c0 8b3d 34b9 40bc 2c1a 64bd
00000210: 10dc b53d b82b 633a f9e1 e3bc d702 48bc
00000220: 3075 a53d 4e16 d63c b192 8ebd ac5a b2bd
00000230: 0763 74bd e3f3 a83d 16ea 7b3d 2252 933d
00000240: 4094 14bd 99ce b1bd 84f7 cd3b 636c 0b3c
00000250: 1da8 6f3d fe1c 81bd 5d35 71bd cd1d 56bd
00000260: 3b8d 903a 2a36 2cbd f034 87bc 42cb 32bc
00000270: a6a7 7abd 621d 18bc 5f04 b7bc b970 a83d
00000280: ef7b 9bbc 5276 8b3d 6b3e a0bd 5b31 a3ba
00000290: 691e 8a3c 8036 f03c d50f 7c3d fcba a2bd
000002a0: 6d05 a43d 4131 553d 04ca 05bd 95a2 1e3d
000002b0: e4c6 a53c 8168 aa3d e1b2 8d3d 2fe6 463d
000002c0: 6ea1 18bd fca2 183c 30ec a7bb c277 313b
000002d0: b889 a3bc 5ef2 50bd c447 91bd 4465 673d
000002e0: 0f17 afbb 5bc0 f7bb 81c3 0abd 6993 c0b9
000002f0: 0203 44bc da15 183c 05da 3fbd f661 7dbd
00000300: 8f63 d33c 55f7 5bbd 12c8 87bd 85ee 9a3d
00000310: 1466 13bd 4364 193d 13f9 a83c 3854 adbd
00000320: e321 333d 0540 b53d c331 293c 2ae8 9bbd
00000330: 82c6 203d 7de6 183c 37d7 0fbd 4c7f f93b
00000340: 7476 a6bd 1a2b a33d f273 863d 87a7 ae3d
00000350: 650e 3d3d 8430 913d dc64 823d 0e0b 333d
00000360: 1f03 a7bd ce91 1dbd fb5c 963c d69d 943c
00000370: f7d6 12bd 6207 b63d d326 2abd 8ebb 393d
00000380: b112 913b a65c 8b3d 4e74 55bd ac28 b8ba
00000390: 028f ad3d ba0c a53d 5830 8fbd 41e3 323d
000003a0: f438 38bd d254 9e3d 5f53 623d e88b acbc
000003b0: d525 ee3c 421f 91bd e3c4 a8bd b836 8bbd
000003c0: 0951 a4bd e76e 4d3d 4912 823d 90c0 0ebd
000003d0: f335 ac3d f163 f8bc 77dd 3b3c 497f 9e3b
000003e0: f479 63bc cd49 3d3d e825 a6bd b76d 49bd
000003f0: 45da 9e3d aa32 97bc b5a4 83bd ca8f c5bc
0.029837137 -0.09058275 0.061078098 -0.05120172 -0.0038157045 0.062295202 -0.075465776 -0.072040275
-0.0038800295 0.06578109 -0.07144436 -0.07444872 -0.08794097 0.060965944 -0.045348093 0.04045994
0.07008852 -0.056822717 0.024791496 -0.04999212 0.009582861 0.07460935 -0.01114069 -0.024031261
-0.07011818 -0.012718609 0.039963633 -0.057703257 0.06522186 0.00464304 0.054974016 0.07293411
0.004588694 -0.07412483 -0.007965908 0.028877668 0.08814109 -0.03381981 -0.07870893 -0.013158415
0.066154644 -0.056856845 0.08714309 0.028978536 -0.040539335 0.07709846 -0.013794833 0.06571536
-0.060329374 -0.07953028 0.027424114 -0.004928319 0.08232213 0.011095943 0.07799373 -0.034145687
-0.05074535 -0.074813284 0.012809356 -0.026134728 0.039832056 0.07853972 0.007509103 -0.024255011
-0.04880748 0.051341742 -0.08532023 -0.032181393 -0.053748727 -0.011676131 -0.01206367 -0.012843352
0.039944895 -0.06801044 0.0622789 -0.04955642 0.026040388 0.060101967 -0.027050514 -0.06236474
0.054946374 -0.0010657333 0.052398343 -0.0428275 -0.062609464 -0.05481793 -0.039117493 -0.08823878
-0.062166672 0.0466643 -0.075784355 0.07824961 0.022358852 0.07956907 -0.07939605 0.08115365
0.08842645 0.01748489 -0.076092996 0.05208891 -0.009017092 -0.011421725 -0.0057833274 -0.016681442
0.002275526 0.08640035 0.011925977 -0.0600887 0.053573728 -0.0665497 0.07820267 -0.016497204
-0.07412896 0.0040630694 -0.08967183 -0.03073154 -0.025657322 0.032817572 0.019318031 -0.08136155
-0.05866785 -0.05481963 0.0074314144 0.05856712 0.07143872 -0.022838641 -0.08865677 -0.07355386
-0.02178884 0.068237595 -0.011762906 -0.055689022 0.08879864 0.00086658774 -0.027817713 -0.012207708
0.08078992 0.026133683 -0.06961573 -0.087087005 -0.059664752 0.08249643 0.06150254 0.071934
-0.036274195 -0.086819835 0.0062856097 0.008509728 0.058509935 -0.06304358 -0.05888878 -0.052274514
0.0011028418 -0.042043842 -0.016504735 -0.010912718 -0.06119504 -0.009284349 -0.022340951 0.08224625
-0.018979995 0.06809677 -0.07824405 -0.0012450622 0.016860204 0.029322863 0.061538536 -0.07945821
0.080088474 0.052048925 -0.03266336 0.03872927 0.02023644 0.08320714 0.06918884 0.048559364
-0.037263326 0.009316202 -0.0051245913 0.0027079438 -0.01996313 -0.05101239 -0.07093766 0.05649306
-0.005343325 -0.0075607724 -0.033877853 -0.00036730923 -0.011963608 0.009282554 -0.04683878 -0.061861
0.02580431 -0.05370267 -0.06629957 0.07565025 -0.03598602 0.037449133 0.02062658 -0.08463329
0.04373349 0.088501014 0.0103268055 -0.07612641 0.03925181 0.009332296 -0.035117354 0.007614052
-0.08128062 0.07967205 0.065650836 0.08528047 0.046156306 0.07089332 0.06366894 0.043711714
-0.08154892 -0.03846913 0.018354883 0.018141668 -0.035849538 0.08888127 -0.041540932 0.04534488
0.004427277 0.06804781 -0.05211287 -0.0014050207 0.08474542 0.08059068 -0.06991643 0.043673757
-0.04497619 0.07731022 0.05525529 -0.021062806 0.029070774 -0.0708604 -0.08240678 -0.06797546
-0.08023269 0.050154593 0.06351144 -0.03485161 0.084087275 -0.030321093 0.011466376 0.004836951
-0.013884056 0.04621296 -0.08112699 -0.049176898 0.07756475 -0.018456776 -0.064279 -0.024116416

fc2.bias f4 [84]
00000000: 998c eebb e459 86bd c7f7 9f3d 20fd a83d
00000010: 132c c0ba bcff ff3b c08e 293d fd58 27bd
00000020: 0a78 8e3d e524 983d ffdb 243d 3c14 4a3d
00000030: abb2 443d e5d4 703d d289 aebd e3d3 efbc
00000040: 597e 59bd b1ac c9bb be5f 2bbd 8e7b 933d
00000050: d0bc ef3c 4c14 3a3d 753f b43c 5a23 963d
00000060: e445 5e3c a367 15bd d97d a13d 74ff 85bc
00000070: 3b5f 0f3d b362 1a3d da41 4cbd aa42 6d3d
00000080: 6192 b0bd 3b0c 90bd 5e67 cbbc 43ae 273d
00000090: 876a b23d 9f6e 93bd 18f4 b13c 9094 63bd
000000a0: 4bb8 babd 6b0d 823d 38e1 88bd fea9 9e3d
000000b0: 2283 b3bd 6843 7fbd 3b7c 823c 8898 463d
000000c0: 68ae 3cbd 1048 b53d f631 5cbc 59c0 4bbc
000000d0: cdb0 adbd d6dc 623d 1862 673d 042f eabc
000000e0: c2b0 f83c 2fce 57bd 6d35 45bd 30da 5bbd
000000f0: f170 f6bc d683 89bd f212 edbb c93d b43d
00000100: 8a59 acbd a090 913d 6678 bfbc ca94 a8bd
00000110: 13f6 613c 7810 3cbd 0648 5abc 35f3 913d
00000120: e130 fcbc 43dd 0b3d e02c 0c3d 170c c4bb
00000130: 03be a8bd 1fe7 893d 8e60 1a3d 93ec 943d
00000140: 9b50 22bd 3071 1f3d 071b 32bc 8e6a 5bbd
-0.007279944 -0.06560114 0.07810932 0.08251405 -0.0014661573 0.0078124683 0.041395903 -0.04085635
0.069564894 0.07428912 0.040248867 0.049335703 0.048021954 0.058796782 -0.08522381 -0.02927584
-0.05309901 -0.0061546196 -0.041839354 0.072013006 0.029264838 0.045429513 0.022002915 0.073309615
0.013566468 -0.03647579 0.07885332 -0.016357161 0.03500293 0.037691783 -0.04986749 0.057924904
-0.086216696 -0.07033583 -0.024829563 0.040937673 0.08711725 -0.07198834 0.021722838 -0.055561602
-0.09117182 0.063502155 -0.06683582 0.07747267 -0.08765246 -0.062320143 0.015928378 0.04848531
-0.046064764 0.088516355 -0.013439646 -0.012435996 -0.08480988 0.055386387 0.056490034 -0.028586872
0.030357722 -0.052686866 -0.048146654 -0.053674877 -0.030083152 -0.06714599 -0.0072349245 0.08800847
-0.08415516 0.07107663 -0.02337284 -0.08231504 0.013791579 -0.045914143 -0.013322836 0.07126466
-0.030785026 0.03414656 0.034222484 -0.0059828865 -0.08239367 0.06733536 0.037689738 0.072716855
-0.039627653 0.038926303 -0.010870702 -0.053568415

fc3.weight f4 [10, 84]
00000000: a4cc 89bc d6cd 0bbd eda1 d7bd 316f 9c3d
00000010: bbe3 7b3d 9d23 9cbd d7d1 8c3d a416 b03d
00000020: 02fd 81bd f86d ac3d c55a 42bd d2cd c4bb
00000030: e3f9 b0bd 0bc8 b73d ef82 d23d bd76 6bbd
00000040: 8338 5cbd 8e4a 693d c91b c7bd d4ba 423d
00000050: ba48 a4bc 6cae bc3c 01c4 ad3d 8410 4d3c
00000060: 60f3 a8bd 57f5 913c fa28 1bbd e0c2 d1bd
00000070: 0488 75bd 4b9a bc3d fc6c 3c3d f21c a93d
00000080: 9f08 eb3c 0ef0 bf3d 1106 3cbb 3f07 d4bc
00000090: 3755 c23d 148f 343d 6ea6 e8bc 089a 823d
000000a0: d010 913c f0a6 a9bd 3bc1 fdbc 444d 6e3d
000000b0: 891b 0cbd 2ad9 a23d 48f4 7d3d fecf d03c
000000c0: d549 b13c 88d6 6c3a dfe8 9bbc aba8 c63d
000000d0: 48dd acbc eb40 953d 0210 afbd b409 c93d
000000e0: a061 5ebd a7f3 aa3c 241b c0bd 380f d6bd
000000f0: fc24 d0bd 5b96 a5bb 110d 5abd 038d a0bd
00000100: 1e80 6cba 09a3 87bd fa02 863d d393 adbd
00000110: a6eb 94bd 4e02 983d 7b69 eb3c 8fbe 8bbd
00000120: b2a8 923d 63c1 433d bdac b73d 726e 78bd
00000130: f403 c03d 7486 99bd 10dc ad3d 29ac 9a3d
00000140: 2585 b63b 999a 973d 7238 2b3c 198b c1bd
00000150: 50e4 823c b915 bfbd 82e8 843c f554 773d
00000160: 03f2 bbbd 870e 213b ed6d 4dbd 86a5 923d
00000170: 2147 8ebc cd28 d3bc 9795 cabd f773 523d
00000180: c2c7 5c3d ad19 9fbd 386d 62bd 056a d33c
00000190: dc27 b4bd 053a 8bbc 5f9c 06bd 599c b8bd
000001a0: 32f8 c8bd f1b4 2fbd 963a 34bd 3acc 9cbc
000001b0: c0c3 a1bd 5120 7abd af69 cdbd 0af0 993d
000001c0: 1571 4b3d 955d d73d 814d 00bd 80a3 c0b9
000001d0: 20f1 f63c b92f 9a3d 151f 5ebd 1a2d 21bd
000001e0: 4716 1fbd b6bd 9e3c 66d7 653a 422f 7c3d
000001f0: 32d4 2cbd fb82 a3bd c18c 063d 56bf 483d
00000200: 68c9 85bd 4a8e c53c 7a5e a1bd ca69 2bbd
00000210: f75b 5ebd 5bc2 8ebd 4fc7 84bd 1e99 27bd
00000220: a65e 27bb 2432 283d 6734 953d f0a9 a13d
00000230: b44c 37bd 331d 2ebd 88cc e03b b09e 93bd
00000240: 2d19 a2bd 165b 94bd ea13 18bd 8550 b5bd
00000250: 5d55 79bd f48e 9dbd 9249 d03d 0bd9 b13d
00000260: 989f a73c 3f60 873d 2350 5f3d 5c75 cfbd
00000270: 642b 17bd 9509 c6bd de61 cabd 6b1b 6e3d
00000280: 2102 a3bd e2d3 123d 93ee 893c 9329 db3d
00000290: 475a a93c 90fc ab3d 783a 873d b734 db3d
000002a0: ff4c 963d 1929 9bbd ef7e 83bd 4f78 7cbd
000002b0: b45a 303d 53a1 893d b3a0 523d d6bc c1bd
000002c0: f22e abbd 938d adbd 043c a3bc d09f c1bc
000002d0: 3034 0ebd 1c4e 1cbd 2e62 34bb cd84 d9bd
000002e0: ff7d 6f3d 6fdf d83c ae7c 9ebc 01c3 873d
000002f0: 4a60 9cbd 2cee bb3b 633f db3a 8cd2 0d3c
00000300: 41b2 d0bd e573 71bd ee0e 0dbd b37c 133d
00000310: f65b 80bc 648c 8dbc 4ec5 de3d a095 003c
00000320: cb65 a73d 5e50 5b3d 7483 c23d 1fd9 a7bd
00000330: a1d9 b3bc e9c5 98bc 6dfc 93bd f615 8b3b
00000340: 32fd 893d 868b 983d 1ae9 a83d 707a d93d
00000350: ab74 d93d 4093 e0bb 55ce c6bc d684 b63d
00000360: c038 513d 014b 20bd 74e9 debd 3d30 c53d
00000370: b2b0 98bd ccad cd3c 32eb 26bd 61a4 2cbc
00000380: f2c1 733d 57a3 43bd 2826 a1bd 50b1 9c3d
00000390: d003 b03a 89c2 ed3c dc44 83bd 9549 b23a
000003a0: 53fb c0bd 8b92 573c be7d 0dbd e641 153c
000003b0: edc4 75bd 698f aabc 38e4 4cbc 9fad d13d
000003c0: 6e71 c53d f322 343d cec5 65bd 8bcb 07bd
000003d0: 18dd b33d a8c1 c8bd 5168 113d 2761 babc
000003e0: 06ad b53d dc05 8f3d 5cf6 423b b307 0dbd
000003f0: 30ce cd3d 7288 f23c 0e0a 503d f00d ac3d
-0.016821213 -0.034131847 -0.10528932 0.076383956 0.061496478 -0.0762398 0.06875961 0.08598068
-0.063470855 0.084194124 -0.047449846 -0.006005981 -0.08641412 0.08973702 0.1027888 -0.057486285
-0.05376483 0.056955867 -0.097220965 0.047541454 -0.02005421 0.02303239 0.084846504 0.012516145
-0.08249545 0.017817182 -0.037880875 -0.102422476 -0.059944168 0.092091165 0.046002373 0.08257474
0.028690634 0.09371959 -0.002869014 -0.025882361 0.0948891 0.044081762 -0.028399672 0.063770354
0.017708212 -0.08283794 -0.030975929 0.058179155 -0.034205947 0.07951577 0.062000543 0.025489803
0.021641651 0.0009034653 -0.01903194 0.097001396 -0.021101609 0.07287773 -0.08547975 0.09816304
-0.05429232 0.020868136 -0.09380177 -0.104521215 -0.10163304 -0.005053324 -0.053235117 -0.07839396
-0.00090217765 -0.06622893 0.065435365 -0.08475461 -0.07271509 0.074223146 0.02873682 -0.068234555
0.07161082 0.04779185 0.08968494 -0.060652204 0.09375754 -0.07496348 0.08489239 0.07552368
0.0055700713 0.07402534 0.010450469 -0.09450359 0.015978009 -0.09330315 0.01622415 0.060383756
-0.091770194 0.002457531 -0.05015366 0.07160477 -0.017367901 -0.025776291 -0.09891813 0.051380124
0.05390144 -0.07768569 -0.05527994 0.02580739 -0.08796665 -0.01699544 -0.03286397 -0.09014196
-0.098129645 -0.04289717 -0.044001184 -0.019140352 -0.078986645 -0.061065976 -0.10029923 0.07516487
0.04966839 0.10515896 -0.031323913 -0.0003674291 0.030144274 0.075286336 -0.05422886 -0.039349653
-0.038839605 0.01937757 0.00087677536 0.061568506 -0.042194553 -0.07983967 0.032849077 0.049010597
-0.06532556 0.0241157 -0.07879348 -0.041848935 -0.054286923 -0.06970664 -0.064833276 -0.04091751
-0.0025538593 0.041063443 0.072853856 0.07893741 -0.044750884 -0.042508315 0.0068603195 -0.072080016
-0.07914958 -0.07243936 -0.037128367 -0.088532485 -0.060872424 -0.07693282 0.101702824 0.08683976
0.020461842 0.06610154 0.054519784 -0.101298064 -0.036906615 -0.096697964 -0.09881948 0.058131617
-0.079593904 0.0358466 0.016837394 0.10701289 0.02067293 0.08397782 0.06602949 0.10703414
0.073389046 -0.07576198 -0.06420695 -0.061638173 0.04305525 0.06720223 0.051422786 -0.09459846
-0.083585635 -0.08474269 -0.019926079 -0.023635775 -0.03471774 -0.03816043 -0.002752434 -0.10621033
0.05846977 0.026473729 -0.019346561 0.06628991 -0.07635553 0.0057351794 0.0016727265 0.008656155
-0.10190249 -0.058948416 -0.034438066 0.036007594 -0.01566885 -0.017278858 0.10877477 0.007848173
0.08173712 0.05354344 0.09497729 -0.081957094 -0.02195436 -0.018649058 -0.07225881 0.0042445613
0.06737746 0.07448487 0.082475856 0.10619056 0.10617956 -0.006853491 -0.024268309 0.08912055
0.05107951 -0.03913403 -0.108843714 0.09628341 -0.07455577 0.025107287 -0.040751643 -0.010537238
0.059511133 -0.047763195 -0.07868606 0.07651007 0.0013428871 0.029023426 -0.06409618 0.0013602251
-0.09422936 0.013157497 -0.034543745 0.00910995 -0.060002256 -0.020820336 -0.012505583 0.10238194
0.096407756 0.043978643 -0.056096844 -0.033153098 0.08782405 -0.09802562 0.035499875 -0.022751404
0.08870892 0.069835395 0.0029748892 -0.03443117 0.10049093 0.029606078 0.05079084 0.08401096

fc3.bias f4 [10]
00000000: 0e52 da3d f2c2 8dbd 82ad c3bd fa23 cfbd
00000010: d6b3 d23d ada3 67bd 554a 93bd 66f5 d83d
00000020: 5628 f6bc feb3 c7bd
0.10660182 -0.069219485 -0.09554578 -0.10114284 0.10288207 -0.056552578 -0.07191912 0.10593681
-0.03004853 -0.09751128
