icv/W06_for_students/cifar_net_100e_epoch-10.pth (torch, 259480 bytes, 10 tensors)

conv1.weight f4 [10, 3, 5, 5]
0	0xbdd2831d	-0.10278914
1	0xbdc060d6	-0.0939347
2	0xbc31382f	-0.010816618
3	0x3db03aa9	0.086049385
4	0xbddb9c9b	-0.107232295
5	0xbd21c71c	-0.039496526
6	0xbde11b82	-0.10991575
7	0xbd3e6f45	-0.046492834
8	0xbda82387	-0.08209901
9	0x3dd88bcb	0.105735384
10	0xbde62855	-0.112381615
11	0x3d8ca06c	0.068665355
12	0x3bd423c2	0.006473989
13	0xbdac3944	-0.0840936
14	0xbdc01c34	-0.09380379
15	0xbd8c514c	-0.06851444
16	0x3caf59f7	0.021405203
17	0x3d2fe758	0.042945236
18	0x3d91d9de	0.07121633
19	0xbd974c9a	-0.073876575
20	0xbcabf918	-0.0209928
21	0xbdc6bd92	-0.097041264
22	0x3d59e89b	0.053200345
23	0xbd405956	-0.046960197
24	0x3dc55a1a	0.09636326
25	0xba99014a	-0.0011673358
26	0x3d2a3083	0.04155017
27	0x3d911f9a	0.07086106
28	0xbd23a7bd	-0.03995489
29	0xbb0c4e1d	-0.0021408864
30	0x3d2a971b	0.04164801
31	0x3da58816	0.08082597
32	0x3de4b662	0.11167599
33	0xbc287681	-0.01028216
34	0x3deb22f9	0.1148128
35	0x3cda962c	0.026682936
36	0x3d8af9c8	0.06785923
37	0xbde6e593	-0.112742566
38	0x3bab8da6	0.0052353917
39	0x3de23efa	0.11047168
40	0xbde47a49	-0.111561365
41	0x3de18726	0.11012106
42	0xbc0a4efc	-0.008441683
43	0x3d5dc972	0.05414719
44	0xbc25be56	-0.01011618
45	0x3c97a688	0.018512025
46	0x3dad75bc	0.08469722
47	0xbda5c581	-0.080943115
48	0xbcf64c0c	-0.030065559
49	0x3ddb20a5	0.10699586
50	0xbc961401	-0.018320085
51	0xbd9aedbf	-0.07564878
52	0x3d5caa00	0.053873062
53	0xbc295435	-0.010335018
54	0xbc464f1a	-0.01210382
55	0x3bf81fbb	0.007572142
56	0x3da9272d	0.08259425
57	0x3d98a120	0.07452607
58	0x3b876788	0.004132215
59	0xbd85e623	-0.06538036
60	0x3cba284f	0.022724299
61	0xbcfef143	-0.031120902
62	0x3d491c20	0.049099088
63	0xbd8b999b	-0.06816407
64	0xbcf1a76d	-0.02949878
65	0x3d234f76	0.0398707
66	0xbdb4ad2d	-0.08822093
67	0x3da106b5	0.078626074
68	0xbdd3b741	-0.10337687
69	0xbda1a959	-0.078936286
70	0x3c19cfcf	0.009387924
71	0x3d6ee5bb	0.058324557
72	0xbd8cd5c9	-0.06876714
73	0x3da7fbf1	0.08202351
74	0xbd8049a0	-0.06264043
75	0xbd663c03	-0.056209575
76	0xbc63e1aa	-0.013908783
77	0xbcee0d2b	-0.029059013
78	0xbc4aec30	-0.012385413
79	0xbbf3fe5f	-0.007446095
80	0x3d2a82f5	0.041628797
81	0xbd827164	-0.06369284
82	0xbd82f507	-0.063943915
83	0xbdd48074	-0.10376063
84	0xbbd6d113	-0.0065556853
85	0x3dd44e64	0.10366514
86	0x3dd4aad8	0.10384148
87	0xbd2e75f1	-0.042592946
88	0x3db5273e	0.088453755
89	0xbdd4f369	-0.10397989
90	0x3da6ac4e	0.08138333
91	0xbd8adf9f	-0.067809336
92	0xbd6658b2	-0.05623693
93	0xbda71e4e	-0.08160077
94	0x3dcb67eb	0.0993193
95	0xbd233a42	-0.03985048
96	0xbd7eb5da	-0.062185146
97	0x3d04087b	0.03223465
98	0x3bb715df	0.005587324
99	0xbb64d994	-0.0034919726
100	0xbd420f49	-0.04737786
101	0x3d013182	0.031541355
102	0x3db41d06	0.08794598
103	0x3d03fbb9	0.032222483
104	0x3d9c5759	0.07633848
105	0x3d8fb9cf	0.07017862
106	0x3cd2a432	0.02571306
107	0xbd71b936	-0.05901452
108	0x3c6912b9	0.014225655
109	0x3c2b6c47	0.010462827
110	0x3daf1e76	0.08550732
111	0xbbf92e47	-0.0076043936
112	0xbda149ff	-0.07875442
113	0x3dae4e1c	0.08510992
114	0x3c903762	0.017604534
115	0x3de22245	0.11041693
116	0xbca38df6	-0.019965153
117	0x3da04e4d	0.07827435
118	0xbde66d45	-0.1125131
119	0x3c388073	0.011261093
120	0xbdc5a19a	-0.09649964
121	0xbcf7d98d	-0.030255103
122	0xbdbf0b64	-0.093283445
123	0x3d4c92ad	0.04994457
124	0x3d69e1bf	0.057100054
125	0x3ddd48b1	0.108048804
126	0x3d1e7e84	0.038694873
127	0x3dd616d8	0.10453576
128	0xbdad063a	-0.08448453
129	0xbd83eaf8	-0.06441301
130	0x3d1395b7	0.03603145
131	0xbcfd6070	-0.030929774
132	0xbd9f9b07	-0.07793241
133	0x3b98742f	0.004652522
134	0x3d9ff6ad	0.078107215
135	0xbd89a981	-0.067217834
136	0xbb85c512	-0.0040823305
137	0xbd82d620	-0.06388497
138	0xbba52bfa	-0.005040643
139	0x3da0fa07	0.07860189
140	0x3da9327a	0.08261581
141	0x3dab7afc	0.08373067
142	0x3cd187e1	0.025577487
143	0x3d35eaef	0.044413503
144	0xbd94f2cb	-0.072728716
145	0xbde7cc87	-0.11318307
146	0x3ce7f970	0.028317183
147	0x3ddf8e58	0.10915822
148	0x3d171636	0.036886416
149	0x3dd8f78e	0.10594092
150	0x3db362da	0.08759089
151	0x3d1a00a7	0.03759828
152	0xbd71ac86	-0.05900242
153	0x3de00f07	0.10940366
154	0xbd92b41c	-0.071632594
155	0x3db3e8bb	0.08784624
156	0xbc6943cd	-0.014237356
157	0xbd0bce98	-0.03413257
158	0x3c0887a1	0.008333118
159	0x3dd1edba	0.10250421
160	0xbde4d60d	-0.111736394
161	0xbda51d82	-0.08062269
162	0xbada9805	-0.0016677385
163	0x3dc210e7	0.0947588
164	0x3dc8234c	0.09772357
165	0x3da06ea2	0.078336015
166	0x3c8d9674	0.017283656
167	0x3cbb4dc7	0.022864236
168	0xbd572724	-0.05252756
169	0xbc16325f	-0.009167283
170	0x3d3b5488	0.045734912
171	0x3cb144b6	0.02163921
172	0x3dc0df15	0.094175495
173	0xbcc4e1d0	-0.024033457
174	0x3de7eceb	0.113244854
175	0x3a658b2c	0.0008756395
176	0xbdbb8d77	-0.09157842
177	0x3d354bc6	0.044261716
178	0xbd589af8	-0.052882165
179	0x3d568da7	0.052381184
180	0x3cba526d	0.022744382
181	0xbcc44586	-0.023958933
182	0xbde3fb54	-0.111319214
183	0xbdc6f93b	-0.09715506
184	0xbdba8da2	-0.091090456
185	0x3d45c567	0.04828396
186	0x3d3db91d	0.046319116
187	0x3b113b82	0.0022160714
188	0xbcb0dadb	-0.021588733
189	0x3dadd62c	0.08488116
190	0xbdbaafc5	-0.09115557
191	0x3d732671	0.059362832
192	0x3cf55b68	0.029950812
193	0xbdce6a93	-0.10078921
194	0xbdbb47e1	-0.09144569
195	0xbd6db36f	-0.05803245
196	0x3d033627	0.032034066
197	0xbb90b168	-0.0044156797
198	0xbcd521c4	-0.026017077
199	0xbd297c25	-0.04137816
200	0x3d3c0799	0.045905683
201	0xbd49362a	-0.04912392
202	0xbc8958ce	-0.016765978
203	0x3de5eae7	0.11226445
204	0x3c8a44ff	0.016878603
205	0x3d9fad3e	0.07796715
206	0xbced1790	-0.0289419
207	0xbd669f1a	-0.056304075
208	0xbcf21fc6	-0.029556166
209	0xbdb99db5	-0.09063283
210	0x3dcdc8ae	0.10048042
211	0xbd238e5a	-0.03993068
212	0x3dd163c3	0.10224106
213	0x3dd88872	0.105729
214	0x3d8d0a1d	0.068866946
215	0xba219425	-0.0006163738
216	0xbde0cefb	-0.109769784
217	0x3d949bbd	0.07256267
218	0xbcd64c49	-0.026159422
219	0x3c3c91d0	0.011509374
220	0x3c8b92f7	0.017037852
221	0x3d2cefcf	0.042220887
222	0xbd85a837	-0.06526225
223	0xbdd71a62	-0.10503079
224	0xbddd19a7	-0.107959084
225	0x3db9d40d	0.090736486
226	0x3dc20c08	0.09474951
227	0xbc71a981	-0.014749886
228	0xbddb81ce	-0.10718118
229	0x3de1f03a	0.11032148
230	0x3cf7b53d	0.030237788
231	0xbd986cd5	-0.07442633
232	0xbdd0544a	-0.10172327
233	0xbdd8e8fc	-0.10591313
234	0x3d9b85cb	0.07593878
235	0x3d062632	0.03275127
236	0x3dc138cb	0.094346605
237	0x3d68f8d1	0.056877915
238	0xbd6b1288	-0.05739072
239	0xbd433339	-0.04765627
240	0xbdae4060	-0.08508372
241	0x3bb64219	0.0055620787
242	0x3d8c9eaf	0.06866204
243	0x3dd7c2a7	0.10535174
244	0x3c89d24f	0.016823916
245	0xbd439da5	-0.047757763
246	0x3de08c23	0.10964229
247	0x3d0c403e	0.034240954
248	0x3bc92724	0.006138699
249	0x3d3704d3	0.044682335
250	0xbdc98045	-0.098389186
251	0xbca6b4a2	-0.020349804
252	0x3d835833	0.06413307
253	0xbda69745	-0.08134321
254	0xbd93dd2d	-0.0721992
255	0x3dc8258e	0.09772788

conv1.bias f4 [10]
0	0xbba3a644	-0.0049941856
1	0x3d2da01b	0.042389017
2	0xbd5b00a3	-0.053467404
3	0x3ddce7ba	0.10786386
4	0xbdb6b3b9	-0.08920998
5	0xbc802254	-0.015641369
6	0x3cf71da0	0.030165493
7	0xbcfb948c	-0.030710481
8	0x3d1d27dc	0.03836809
9	0x3dc8057c	0.09766671

conv2.weight f4 [16, 10, 5, 5]
0	0x3d86a0cf	0.065736406
1	0x3e0ba57c	0.13637346
2	0x3de36c4c	0.1110464
3	0x3db02e9a	0.086026385
4	0x3e01b826	0.12667903
5	0xbe86649f	-0.26248643
6	0xbe9e46c1	-0.30913356
7	0xbe5fd1bd	-0.21857353
8	0xbe0da81c	-0.1383366
9	0xbdae6c83	-0.08516791
10	0x3e013d1d	0.12620969
11	0x3dcec997	0.10097044
12	0x3dbc10eb	0.09182914
13	0x3d06572e	0.032797985
14	0xbb00e8bf	-0.0019669977
15	0xbdcbac3e	-0.09944962
16	0x3c06cf52	0.00822814
17	0x3ba64d44	0.0050751287
18	0xbd900f09	-0.07034118
19	0xbd8ce182	-0.0687895
20	0x3d454d4e	0.048169427
21	0x3c67cb4e	0.014147593
22	0x3bdacfc4	0.0066775996
23	0x3e0e6b2c	0.1390807
24	0x3e4392be	0.19098946
25	0xbe04afb6	-0.12957653
26	0xbdbe4c25	-0.09291867
27	0xbd5aa809	-0.053382907
28	0xbdfa8b74	-0.1223363
29	0xbe1246fd	-0.14284892
30	0xbe849d06	-0.2590105
31	0xbe87bf91	-0.2651334
32	0xbe38d4f6	-0.18049988
33	0xbd9115bd	-0.070842244
34	0xbd667027	-0.0562593
35	0xbd62b4fb	-0.055348378
36	0xbe24cdae	-0.16094086
37	0xbe60036f	-0.2187631
38	0xbe482121	-0.19543888
39	0xbdb2eb2a	-0.0873626
40	0xbd55a859	-0.052162502
41	0xbe1ec335	-0.15504153
42	0xbdf78e39	-0.12087674
43	0xbca9b38c	-0.020715497
44	0x3cf4457b	0.029818287
45	0x3eb1556f	0.34635493
46	0x3f21d659	0.63217694
47	0x3f1721a0	0.5903568
48	0x3efb3480	0.49063492
49	0x3ebd1cbd	0.36935988
50	0xbc1a694a	-0.009424517
51	0xbd74b35a	-0.059741355
52	0xbd8af914	-0.06785789
53	0xbcf9b42c	-0.03048142
54	0x3c11f454	0.00890835
55	0x3e506538	0.20351112
56	0x3e8943f1	0.26809648
57	0x3e9f9a0f	0.31172225
58	0x3e4eb1dc	0.20185035
59	0x3e1074b4	0.14107019
60	0xbd86f7a6	-0.06590204
61	0xbe1dea36	-0.15421376
62	0xbe03c49e	-0.12867972
63	0xbe06549b	-0.13118212
64	0xbd4701c6	-0.048585676
65	0x3dd0241b	0.101631366
66	0x3daca1fb	0.08429333
67	0x3d0ef250	0.034899056
68	0x3d1f6e06	0.038923286
69	0x3dbe5e69	0.09295351
70	0xbe6c0b99	-0.23051299
71	0xbe810b64	-0.25204003
72	0xbe641f88	-0.22277653
73	0xbdebe31b	-0.11517926
74	0x3d0467be	0.0323255
75	0x3de40a32	0.11134757
76	0x3d99a2bd	0.07501743
77	0x3d36d580	0.044637203
78	0x3bd810a9	0.006593783
79	0x3c4035aa	0.0117315445
80	0xbd2083f8	-0.039188355
81	0xbcbcbe34	-0.023039915
82	0x3d11c5b6	0.035588942
83	0x3cc06371	0.023484917
84	0x3c203a06	0.009779459
85	0x3dc9ba00	0.0984993
86	0x3dcd851a	0.10035153
87	0x3e421237	0.18952261
88	0x3d77396d	0.0603575
89	0x3cd2f5fc	0.02575206
90	0x3d2e8cf5	0.042614896
91	0xbe1736b9	-0.14766969
92	0xbe388092	-0.18017796
93	0xbe083c2b	-0.13304202
94	0xbdef5c27	-0.116874985
95	0xbd2e74cf	-0.042591866
96	0xbc51116d	-0.012760502
97	0x3c5a0722	0.013307365
98	0x3d7f1aa7	0.062281277
99	0x3d6e42ab	0.05816905
100	0xbd8b4d08	-0.06801802
101	0xbddc0514	-0.10743156
102	0xbdcacb3d	-0.09902046
103	0xbcfd38d7	-0.030910892
104	0xbd3f6433	-0.046726417
105	0xbe523bc2	-0.20530608
106	0xbe8c982f	-0.27459857
107	0xbe506e06	-0.2035447
108	0xbe1b6247	-0.15174209
109	0xbe229fbe	-0.1588125
110	0xbe100007	-0.1406251
111	0x3cbbc9ad	0.022923315
112	0x3e05fa66	0.130838
113	0x3e035644	0.12825876
114	0x3e106c6b	0.14103858
115	0x3c76ff66	0.01507554
116	0xbdd6bca6	-0.104852006
117	0xbe89aa02	-0.26887518
118	0xbe694865	-0.22781523
119	0xbcc9c29b	-0.024628928
120	0x3e8a7338	0.2704103
121	0x3eb00f5c	0.34386718
122	0x3ebbe646	0.36699122
123	0x3eab2cd1	0.3343263
124	0x3e829527	0.2550442
125	0xbe02aa02	-0.12760165
126	0x3c0048f7	0.007829896
127	0x3d8de14b	0.06927737
128	0x3ca2552b	0.019816002
129	0xbd953ca6	-0.072869584
130	0xbd8f4e55	-0.069973625
131	0xbd970fc2	-0.073760524
132	0xbe5e5be7	-0.21714745
133	0xbe5e268a	-0.21694389
134	0xbe8187c5	-0.25298896
135	0xbec85f42	-0.39135176
136	0xbee2fb70	-0.44332457
137	0xbebaf299	-0.36513212
138	0xbec00ce1	-0.37509826
139	0xbcf09109	-0.029366033
140	0x3dd05091	0.10171617
141	0x3eb53e22	0.35398966
142	0x3ec19384	0.37807858
143	0x3ec77890	0.3895917
144	0x3ec2478c	0.3794521
145	0x3e7b95a0	0.24568796
146	0x3e7a084a	0.24417225
147	0x3e7119ef	0.23545049
148	0x3e09b485	0.13447769
149	0x3e321407	0.17390452
150	0xbda2a1d9	-0.07941026
151	0xbc6982d8	-0.014252387
152	0xbd1768cf	-0.036965188
153	0xbd027161	-0.031846408
154	0x3d31a695	0.043371756
155	0xbe30a3b2	-0.17249945
156	0xbe259375	-0.16169532
157	0xbe146162	-0.14490274
158	0xbd261eac	-0.040556595
159	0xbd5d751a	-0.054066755
160	0x3d61a037	0.055084433
161	0xbc68396f	-0.0141738495
162	0x3db6c7f9	0.089248605
163	0x3cd40ba5	0.025884459
164	0xbc4ebfb3	-0.012618947
165	0x3e1e1b85	0.15440185
166	0x3e208750	0.15676618
167	0x3d216fb6	0.039413176
168	0xbc25ed39	-0.010127359
169	0xbc8b890e	-0.017033126
170	0xbcaa3421	-0.02077681
171	0xbd500d0a	-0.050793685
172	0xbd108953	-0.035287213
173	0x3b99e62d	0.0046966285
174	0x3d6d6633	0.057958793
175	0xbd7a64e6	-0.06113138
176	0xbd40911e	-0.047013395
177	0xbd264aed	-0.0405988
178	0xbb75e6e3	-0.0037521652
179	0x3d9a0652	0.07520737
180	0x3c2b0808	0.0104389265
181	0xbccd55c1	-0.025065305
182	0xbe1ea371	-0.15492035
183	0xbe37ac48	-0.17936814
184	0xbe198bd3	-0.14994745
185	0xbeb659d4	-0.35615408
186	0xbeb58798	-0.35455012
187	0xbe90a0a7	-0.28247568
188	0xbe1cc4d4	-0.15309459
189	0xb9fbc577	-0.00048021573
190	0x3ea888c1	0.32916835
191	0x3ec1d528	0.37857938
192	0x3edeb4eb	0.43497404
193	0x3e9c8579	0.30570582
194	0x3e4e87a2	0.20168927
195	0x3e10c5b4	0.14137918
196	0x3e364748	0.17800629
197	0x3c52ae3e	0.012858925
198	0xbcc97220	-0.024590552
199	0xbdb46311	-0.08807958
200	0xbe12d68b	-0.14339654
201	0xbdc2dff0	-0.09515369
202	0x3d388311	0.04504687
203	0xbde4e1a0	-0.11175847
204	0xbd44a6dd	-0.048010696
205	0xbd2d8662	-0.042364486
206	0xbcc63a27	-0.024197651
207	0xbe0f4774	-0.13992101
208	0xbe1c5f7d	-0.15270801
209	0xbe6e6b2d	-0.23283072
210	0xbe9f6164	-0.3112899
211	0xbec4a06f	-0.3840365
212	0xbe52a602	-0.2057114
213	0xbdebaee2	-0.115079656
214	0x3cde2981	0.0271194
215	0x3c7527cd	0.0149631025
216	0xbd26abaf	-0.040691074
217	0xbe61c81b	-0.2204899
218	0xbe6c99b5	-0.2310551
219	0xbe1a4327	-0.15064679
220	0x3ebd3cb5	0.36960378
221	0x3f09dd05	0.53852874
222	0x3f25e489	0.6480184
223	0x3f1fcf63	0.6242582
224	0x3f0163aa	0.505427
225	0x3ded9b94	0.1160194
226	0x3e035575	0.12825568
227	0x3e248813	0.16067533
228	0x3e1d237a	0.15345564
229	0x3d6308a9	0.05542818
230	0xbe76110f	-0.24029945
231	0xbe64c1c4	-0.2233954
232	0xbe748148	-0.23877442
233	0xbde30df8	-0.11086649
234	0x3cfc98fb	0.030834666
235	0x3ca145bf	0.019686578
236	0xbd614598	-0.05499801
237	0xbdc9b9b8	-0.09849876
238	0xbe1540cf	-0.14575504
239	0xbdb4eb83	-0.08833983
240	0x3e42cf94	0.19024497
241	0x3e98187a	0.29706174
242	0x3ecb0617	0.39653084
243	0x3eadb0e9	0.33924034
244	0x3e931446	0.28726405
245	0xbcf1cdf7	-0.029517157
246	0xbe76834d	-0.24073525
247	0xbe5a4067	-0.2131363
248	0xbe5ef031	-0.21771313
249	0xbe41e5e5	-0.18935354
250	0xbd194a27	-0.037424233
251	0x3d4d0e15	0.050062258
252	0xbc2286c0	-0.009919822
253	0xbe138ef4	-0.14410001
254	0x3e0e242e	0.13880989
255	0xbe19508c	-0.14972132

conv2.bias f4 [16]
0	0xbde8dfe1	-0.113708265
1	0xbdc44946	-0.09584288
2	0xbdb98cd7	-0.09060066
3	0xbdff02bb	-0.12451693
4	0xbcad6f22	-0.021171156
5	0x3d36ce5c	0.044630393
6	0xbe12f4c3	-0.14351182
7	0x3d3467c2	0.044044264
8	0x3d466340	0.048434496
9	0xbe08625c	-0.13318771
10	0xbebaaa4d	-0.36458054
11	0x3da2b874	0.07945338
12	0xbdb0376e	-0.086043224
13	0x3e00089b	0.12503283
14	0xbe1dab6d	-0.15397425
15	0xbe20fc99	-0.15721358

fc1.weight f4 [120, 400]
0	0xbc83b183	-0.016075855
1	0x3cc9be5d	0.024626905
2	0xbc6592cf	-0.014012053
3	0xbdd4b51a	-0.10386105
4	0xbd5dbf23	-0.05413736
5	0x3c1dd398	0.009632967
6	0x3d43b261	0.047777537
7	0x3c24fb7f	0.010069727
8	0xbc62dc8b	-0.013846527
9	0xbc7d8b5d	-0.015475121
10	0x3ba887bd	0.0051431344
11	0x3d4f59f7	0.050622907
12	0x3ce61bb3	0.02808938
13	0x3da4e3a5	0.08051232
14	0xbd1f9a4a	-0.0389655
15	0xbcc00c29	-0.023443298
16	0x3c3f5d8c	0.011680018
17	0x3dd5a586	0.10431962
18	0x3ddc153a	0.10746236
19	0x3d79dbf8	0.061000794
20	0xbd598439	-0.053104613
21	0x3b1d8e56	0.0024041138
22	0x3d1663ac	0.03671615
23	0x3bce156e	0.0062891757
24	0x3ccc2683	0.024920708
25	0x3c171646	0.009221619
26	0x3d806a48	0.062702715
27	0x3d0b13fa	0.033954598
28	0xbd44fe4f	-0.04809409
29	0x3cf086af	0.029361097
30	0x3d135cf7	0.03597733
31	0x3cff0d6b	0.031134328
32	0xbc38b20d	-0.011272919
33	0xbcda286e	-0.026630607
34	0x3d14d139	0.036332343
35	0xbcc57531	-0.024103733
36	0x3d3e59eb	0.04647247
37	0x3cf7755b	0.030207327
38	0x3b3317ce	0.002732742
39	0xbd2daa91	-0.042398993
40	0x3d75d7a8	0.06002012
41	0xbd013d23	-0.031552445
42	0xbcb06a5b	-0.02153509
43	0xbd0f702c	-0.035019085
44	0x3c0586d5	0.008149822
45	0x3d9c6b11	0.07637609
46	0x3d3c6e0a	0.04600338
47	0xbde0d0e7	-0.10977345
48	0xbd7d421f	-0.061830636
49	0x3c80cde9	0.015723186
50	0xbcc35d44	-0.023848183
51	0xbd0143dc	-0.031558856
52	0xbcfb12a0	-0.03064853
53	0xbd448d54	-0.047986344
54	0xbbe09cc5	-0.006854626
55	0x3d3421e5	0.043977637
56	0x3cd0adb9	0.025473462
57	0xbcee02dc	-0.029054098
58	0xbb8c451d	-0.0042807
59	0xbc31cdd1	-0.010852293
60	0xbc8b24ad	-0.016985262
61	0x3c783ef9	0.015151733
62	0x3c6e012d	0.0145266475
63	0x3c69604b	0.014244149
64	0xbd3ff3f7	-0.046863522
65	0xbb04aaff	-0.0020243523
66	0xbb33a2ba	-0.0027410225
67	0x3b3dd946	0.0028968616
68	0x3baf1827	0.0053434554
69	0x3cfe25e5	0.031023929
70	0xbd30baaa	-0.043146767
71	0xbd242fb0	-0.04008454
72	0xbd3fa164	-0.046784773
73	0xbcdcdf52	-0.026961956
74	0xbd2a23ad	-0.04153793
75	0x3c618b6c	0.013766151
76	0xbd62073f	-0.05518269
77	0xbc674cb0	-0.014117405
78	0xbc4692d2	-0.012119966
79	0x3c954bf6	0.018224698
80	0xbd501f6e	-0.050811224
81	0xba94164f	-0.0011298152
82	0xbc3cdff3	-0.011528003
83	0x3d5b8a01	0.053598408
84	0xbbe42619	-0.0069625494
85	0xbb8240ad	-0.003974995
86	0x3d3e581e	0.046470754
87	0xbd009582	-0.03139258
88	0x3b2864f5	0.002569494
89	0xbc4842fe	-0.012223003
90	0x3d29d983	0.0414672
91	0x3d2b27ac	0.04178588
92	0xbb6de52b	-0.0036299925
93	0xbd30c48c	-0.04315619
94	0xbc9ddc66	-0.019270133
95	0x3bd85a3c	0.0066025537
96	0x3c0ac7e7	0.008470512
97	0x3c04332e	0.008068843
98	0xbbc7fb1c	-0.0061029326
99	0xbd876af8	-0.066121995
100	0x3d4aab27	0.04947963
101	0x3c9c34eb	0.019068202
102	0xbd6a609d	-0.057221044
103	0x3bd40376	0.006470139
104	0x3cb549b6	0.022129875
105	0x3dd99b47	0.1062532
106	0x3d631b84	0.055446163
107	0xbd211962	-0.039330848
108	0xbbe09783	-0.006853999
109	0xbcf86958	-0.03032367
110	0x3df70a33	0.12062492
111	0x3dadbdd3	0.08483472
112	0x3b62fb32	0.0034634587
113	0xbdbd089c	-0.09230158
114	0xbd19c1d0	-0.03753835
115	0x3e028b5a	0.12748471
116	0x3cc5ee1f	0.024161397
117	0xbdeb19ac	-0.11479506
118	0xbdcd6485	-0.10028938
119	0xbdb09c96	-0.086236164
120	0x3e30ed4a	0.17278019
121	0x3db6f650	0.08933699
122	0xbd3b9655	-0.045797665
123	0xbdaaa2ff	-0.0833187
124	0xbdb4ff47	-0.08837753
125	0x3a5ca0ce	0.0008416296
126	0xbc5b775f	-0.0133951595
127	0x3c303dab	0.01075689
128	0x3c9975cd	0.01873293
129	0x3d5ef4e6	0.054432772
130	0x3d1f6582	0.038915165
131	0xbd130bf5	-0.035900075
132	0x3ceba3cb	0.028764626
133	0x3cc583e7	0.024110748
134	0x3c1587fa	0.009126658
135	0xbd5e8908	-0.054329902
136	0x3c286f22	0.010280402
137	0xbcb2b38d	-0.021814132
138	0x3b5a59ca	0.0033317679
139	0xbccaf74a	-0.02477612
140	0x3cbc3138	0.022972688
141	0xbd6503a1	-0.055911664
142	0xbcfd191b	-0.03089576
143	0xbcd14800	-0.025547028
144	0xbcdad827	-0.026714398
145	0x3c5000ab	0.012695472
146	0x3cff6ed9	0.031180786
147	0xbc1780ef	-0.009247049
148	0xbcf88c5f	-0.030340372
149	0xbd8cee9d	-0.06881449
150	0x3d522e2d	0.051313568
151	0x3cf49260	0.029854953
152	0xbce27e24	-0.02764804
153	0x3bea98da	0.0071593346
154	0x3c4893f0	0.012242302
155	0x3bbc160c	0.005739933
156	0x3c24e67b	0.010064716
157	0xbcafe742	-0.021472577
158	0x3d8130aa	0.0630811
159	0x3cd9ed38	0.026602373
160	0xbe00c42e	-0.12574837
161	0x3cc1068f	0.023562698
162	0x3d2c357c	0.042043194
163	0x3c683a92	0.0141741205
164	0xbd746a92	-0.059671946
165	0xbda839a7	-0.08214121
166	0xbd6d0eb9	-0.05787537
167	0x3c8b4dc0	0.017004848
168	0x3cd4ce84	0.02597738
169	0xbcc924df	-0.024553714
170	0x3d27637e	0.040866368
171	0x3cf29065	0.029609868
172	0xbc84cb9f	-0.016210375
173	0xbc1a6aeb	-0.009424905
174	0xbb945b9e	-0.004527523
175	0x3c4f75db	0.012662376
176	0xbd10c02b	-0.035339516
177	0xbd4b7c76	-0.049679242
178	0x3c950c9f	0.018194495
179	0x3cbc233e	0.022966024
180	0xbd6f1020	-0.058364987
181	0x3d79fa34	0.061029628
182	0x3cd0b986	0.02547909
183	0xbd12d9a9	-0.03585211
184	0xbd8bfede	-0.068357214
185	0xbd86e0ba	-0.06585832
186	0x3d04cc2b	0.032421272
187	0x3d40ac4c	0.047039315
188	0xbc9b15a0	-0.01893121
189	0xbcc02c72	-0.023458693
190	0x3c68a118	0.014198564
191	0x3cfc90f8	0.030830845
192	0xbd4e5850	-0.05037719
193	0x3c449301	0.011997939
194	0xbd2610ab	-0.04054324
195	0x3e32dafb	0.17466347
196	0x3d54755c	0.051869735
197	0xbd8a7748	-0.06761032
198	0xbdadee71	-0.08492745
199	0xbca48b8d	-0.020086074
200	0x3cd5e83f	0.02611172
201	0xbc03cdbf	-0.008044659
202	0xbd4471a5	-0.047959942
203	0xbc240b6d	-0.01001249
204	0xbcc9ed23	-0.024649208
205	0x3c8d7b45	0.017270694
206	0x3d5d9e69	0.05410615
207	0x3c811bb6	0.015760284
208	0x3d3a1b10	0.045435965
209	0x3c8b089e	0.016971882
210	0x3d1786d9	0.036993835
211	0x3a2281d3	0.0006199155
212	0x3d0ed684	0.034872547
213	0x3adc0131	0.0016785023
214	0xbc2d9e00	-0.010596752
215	0x3d084c22	0.03327573
216	0xbd8c0f41	-0.06838847
217	0xbd881026	-0.06643705
218	0xbcf79a1b	-0.03022485
219	0xbc59f19e	-0.013302235
220	0x3ddfceaf	0.10928094
221	0xbd941363	-0.0723026
222	0xbe0f16d9	-0.1397356
223	0xbd570846	-0.052498125
224	0x3d4e664f	0.050390538
225	0x3d91570e	0.070966825
226	0x3d4c599c	0.049890146
227	0x3c0ae914	0.008478422
228	0xbbad87bc	-0.005295722
229	0x3d606e1d	0.054792512
230	0x3cca0176	0.0246589
231	0x3d9f36e5	0.07774142
232	0xbcc7c4ad	-0.024385775
233	0xbcb63386	-0.022241365
234	0xbc4b0f66	-0.012393808
235	0xbda3b8ee	-0.07994257
236	0xbd1856c4	-0.03719212
237	0xbbaf08d6	-0.0053416295
238	0xbc9c32d9	-0.019067215
239	0xbd94af5e	-0.07260011
240	0xbe02e7df	-0.12783764
241	0xbdfc977b	-0.1233358
242	0xbdf744fb	-0.12073704
243	0xbc756821	-0.01497844
244	0x3d6e14ba	0.058125235
245	0xbe227448	-0.1586467
246	0xbe41bac6	-0.18918905
247	0xbbb894d3	-0.0056329756
248	0x3dbe071d	0.092787005
249	0x3d4bfbd0	0.049800694
250	0xbc8854e2	-0.016642038
251	0xbd2ab8a2	-0.041679986
252	0xbccc2a0e	-0.024922397
253	0xbce2c702	-0.027682785
254	0xbd184884	-0.03717853
255	0xbd713a04	-0.05889322

fc1.bias f4 [120]
0	0xbde8a2d7	-0.11359184
1	0xbe78a857	-0.24282967
2	0x3da75499	0.081704326
3	0xbd851232	-0.06497611
4	0x3e80a6ca	0.2512725
5	0xbd8a0b19	-0.06740398
6	0x3e2354e0	0.15950346
7	0x3e98ae00	0.2982025
8	0xbc9a301b	-0.018821767
9	0xbc16ceff	-0.009204625
10	0xbcf36c45	-0.029714713
11	0x3e395987	0.18100558
12	0xbc22fd53	-0.0099480925
13	0xbe61611c	-0.220097
14	0x3e15d545	0.14632137
15	0xbcdc9e9c	-0.0269311
16	0x3ca5e8d8	0.02025263
17	0x3e19e807	0.15029918
18	0x3af47264	0.0018649814
19	0xbbeb1f32	-0.0071753496
20	0xbe375a51	-0.17905547
21	0xbd1d6a13	-0.03843124
22	0x3c90a3b4	0.017656185
23	0x3d5fa09f	0.05459654
24	0x3e8aa6d7	0.27080414
25	0x3e6b7b46	0.22996244
26	0xbf612409	-0.8794561
27	0x3ddf86df	0.109143965
28	0xbcbf6bbe	-0.023366805
29	0xbdf6f8f2	-0.12059201
30	0xbe7cc1ef	-0.24683355
31	0x3c33a01c	0.010963466
32	0xbe81b20c	-0.2533115
33	0xbe8a782f	-0.27044818
34	0x3e1002a7	0.14063512
35	0xbdbae16c	-0.09125027
36	0x3dbe2ea3	0.09286239
37	0x3dc1b1d2	0.09457745
38	0xbf554145	-0.8330272
39	0xbe2ed16a	-0.17072073
40	0x3e9a3463	0.30118093
41	0xbe67fc5e	-0.22654864
42	0x3d53a43d	0.0516703
43	0xbd315eb1	-0.043303195
44	0xbd8d12c3	-0.06888344
45	0xbdf15b9d	-0.11785052
46	0x3ec60d4b	0.38682017
47	0xbdabf844	-0.08396962
48	0xbe6cb5f1	-0.2311628
49	0x3e2dd2cc	0.16974944
50	0x3df44edc	0.11929104
51	0xbe60bb6a	-0.21946493
52	0xbb86c7dc	-0.0041131806
53	0x3eade1fb	0.33961472
54	0x3e88b2f8	0.26699042
55	0xbd5e8229	-0.05432335
56	0xbcd4c67c	-0.025973551
57	0xbd080efb	-0.03321741
58	0x3e9a9b3e	0.30196565
59	0x3e2ed98d	0.17075177
60	0x3c18e512	0.009331958
61	0x3e815559	0.25260428
62	0x3ea4ce18	0.32188487
63	0x3dd9a095	0.10626332
64	0x3ef4a3dc	0.47781265
65	0xbe21e3f8	-0.1580962
66	0xbea74ece	-0.3267731
67	0x3e757292	0.23969486
68	0x3e3722c4	0.17884356
69	0x3f02884e	0.50989234
70	0xbe43e2ab	-0.19129436
71	0x3f111312	0.56669724
72	0xbdaa7970	-0.083239436
73	0x3eb068ff	0.34455106
74	0x3dc0aeac	0.09408316
75	0xbe9090f9	-0.28235605
76	0x3b3c0e61	0.0028695094
77	0x3f3490e0	0.7053356
78	0x3f6046fc	0.87608314
79	0xbeb08f3e	-0.34484285
80	0xbec4998f	-0.38398406
81	0xbe6cfd7d	-0.23143573
82	0xbed017cf	-0.40643165
83	0x3df7a39f	0.12091755
84	0xbd908c28	-0.07057983
85	0xbf05cea1	-0.52268416
86	0xbdab5a86	-0.08366875
87	0x3edbc55b	0.42924008
88	0x3d558b18	0.052134603
89	0x3bbcfb23	0.0057672425
90	0x3e5b9eba	0.21447268
91	0xbec27612	-0.37980705
92	0xbcc37fee	-0.023864713
93	0x3e29dbdf	0.1658778
94	0x3eaf81da	0.34278756
95	0x3ea967a9	0.330869
96	0xbf098aee	-0.53727615
97	0x3f6e0ae5	0.92985374
98	0x3dd72186	0.10504441
99	0xbf260e2e	-0.64865386
100	0x3d40bd51	0.047055546
101	0xbdbf9658	-0.09354848
102	0xbf191fbb	-0.5981404
103	0xbd89ad60	-0.06722522
104	0xbca1d13d	-0.019753093
105	0x3ec23a69	0.37935188
106	0x3d671d0c	0.056424186
107	0x3e347e6f	0.17626356
108	0xbe74208d	-0.23840542
109	0x3e88f026	0.2674572
110	0xbd1330b2	-0.03593511
111	0xbd1a028e	-0.037600093
112	0x3df01cec	0.117242664
113	0xbe692b09	-0.22770323
114	0x3e96e8ad	0.29474393
115	0x3d37138c	0.044696376
116	0x3e6d329b	0.23163836
117	0x3dc4acaa	0.096032456
118	0x3f2cbbe7	0.67474216
119	0xbc136f1d	-0.008998659

fc2.weight f4 [84, 120]
0	0xbc5d7fbf	-0.013519227
1	0x3e48a76c	0.19595116
2	0x3de04350	0.10950339
3	0xbd180f87	-0.037124183
4	0xbc365baa	-0.011130253
5	0x3d165580	0.036702633
6	0xbba4bd0a	-0.005027418
7	0x3c38f474	0.011288751
8	0xbdc034ea	-0.093850926
9	0x3da40e4d	0.0801054
10	0xbcd8002e	-0.026367273
11	0x3dcab83c	0.09898421
12	0xbcf96f95	-0.030448714
13	0xbde7a9d8	-0.11311692
14	0xbdd15de6	-0.10222988
15	0xbd48d33b	-0.04902957
16	0x3d4d9d4f	0.05019885
17	0x3e58d022	0.21173146
18	0xbca28d3a	-0.019842733
19	0xbd6eec7c	-0.058330998
20	0x3d1f2a91	0.038858954
21	0xbc03404d	-0.008010936
22	0xbd9d5773	-0.07682695
23	0x3e2fe1d7	0.17175995
24	0xbb87f65a	-0.0041492404
25	0x3cde4942	0.027134541
26	0x3daa37cf	0.08311426
27	0xbe4d3dca	-0.20043102
28	0x3d6ea36c	0.05826132
29	0xbd939f8f	-0.07208168
30	0x3e1efe51	0.15526702
31	0x3d1184d6	0.035527073
32	0xbd553085	-0.052048225
33	0x3e06573a	0.13119212
34	0x3b9bbd97	0.0047528255
35	0x3ddb1e10	0.10699093
36	0x3d2b1d0f	0.04177576
37	0x3d7b9c51	0.06142837
38	0x3e46ac93	0.1940177
39	0xbcf6ff30	-0.03015098
40	0xbdbd0f9e	-0.09231494
41	0xbe0e0362	-0.13868478
42	0x3c1bb224	0.009502921
43	0x3dba13fe	0.090858445
44	0xbd6f41b7	-0.05841228
45	0x3ddc4874	0.10756007
46	0x3d366c26	0.044536732
47	0x3d5ecb80	0.05439329
48	0x3d5de19a	0.05417023
49	0x3c5d7169	0.013515809
50	0xbdac21e5	-0.08404902
51	0x3de3ee73	0.11129465
52	0xbb3f4096	-0.0029182783
53	0xbd8f4ac5	-0.06996683
54	0xbcf255b5	-0.029581884
55	0x3d0b371b	0.0339881
56	0x3d6306ca	0.055426396
57	0x3dc07f51	0.09399284
58	0xbd861914	-0.06547752
59	0x3b8de51f	0.004330292
60	0x3dc13de7	0.09435635
61	0xbe223585	-0.15840729
62	0xbdfb9549	-0.12284333
63	0xbd35488e	-0.044258647
64	0xbde97139	-0.11398549
65	0x3dd1b34e	0.10239278
66	0x3e1de801	0.15420534
67	0x3d4cf791	0.050040785
68	0x3cb4145a	0.02198236
69	0xbd7a49f1	-0.061105672
70	0x3c84ec52	0.016225968
71	0xbe16cac9	-0.14725794
72	0x3da687a6	0.08131342
73	0xbd2186b9	-0.039435122
74	0xbc25a857	-0.010110936
75	0xbc1136cc	-0.008863162
76	0x3e209f5b	0.1568579
77	0xbd886f2e	-0.06661831
78	0xbd021028	-0.03175369
79	0xbd27bd18	-0.04095182
80	0xbe150aca	-0.14554897
81	0xbd942d60	-0.07235217
82	0x3b896560	0.004192993
83	0xbe395aa7	-0.18100987
84	0x3d398e0d	0.045301486
85	0xbdd27a67	-0.10277253
86	0x3d963f7a	0.07336326
87	0xbd8c8b37	-0.068624906
88	0xbd8bbac5	-0.06822733
89	0xbdfbc071	-0.12292565
90	0x3c433c25	0.011916195
91	0xbd01d942	-0.031701334
92	0x3d5bf23e	0.053697817
93	0xbdcc9d99	-0.09990997
94	0xbcfbab3b	-0.030721297
95	0xbe0e8baa	-0.13920465
96	0xbe00f6db	-0.12594168
97	0xbe93601c	-0.28784263
98	0x3d98df16	0.07464425
99	0x3d0f94d7	0.035054054
100	0x3d470301	0.04858685
101	0x3db0787e	0.08616732
102	0x3dee684b	0.11640986
103	0x3d9a46e0	0.075330496
104	0xbc3797e9	-0.011205652
105	0xbe83e0f4	-0.25757563
106	0x39644634	0.00021769927
107	0x3d8ecbcb	0.06972464
108	0x3d96cb4f	0.07362997
109	0xbd32d219	-0.043657396
110	0xbc717982	-0.014738442
111	0x3bb4a97e	0.005513369
112	0xbe5881da	-0.21143284
113	0x3cd37744	0.025813706
114	0xbdc1604d	-0.09442196
115	0xbdba7713	-0.09104743
116	0xbd16a915	-0.036782343
117	0x3df67395	0.12033764
118	0x3cdf3801	0.027248384
119	0x3cfaa3ae	0.030595627
120	0xbd84be7b	-0.06481644
121	0xbd88144c	-0.06644496
122	0xbca6b13b	-0.020348182
123	0xbd162202	-0.036653526
124	0x3d849fae	0.06475769
125	0x3db38713	0.08765998
126	0xbd327ae7	-0.04357424
127	0xbda4a900	-0.08040047
128	0xbc38d3c3	-0.011280957
129	0x3e095b2f	0.1341369
130	0x3d8f84fe	0.07007788
131	0xbd130af3	-0.035899114
132	0xbd056c7d	-0.032574166
133	0x3cdb13b2	0.02674279
134	0xbd98b060	-0.07455516
135	0x3d19888f	0.037483748
136	0x3d9cb999	0.076525874
137	0x3d9ca71c	0.07649061
138	0x3d334cb2	0.043774314
139	0xbdcb9959	-0.09941358
140	0xbbc2c520	-0.0059439093
141	0x3ba65f1b	0.0050772554
142	0xbd5c0b37	-0.053721633
143	0x3cd35b81	0.025800468
144	0x3da02ac0	0.07820654
145	0x3e4b65cb	0.1986305
146	0xbdfffe21	-0.12499643
147	0x3c875067	0.016517831
148	0x3d82072a	0.06349023
149	0xbd94bd06	-0.07262616
150	0x3d5ee84d	0.054420758
151	0xbc1b0911	-0.009462611
152	0x3d1edee5	0.038786788
153	0xbd36f447	-0.044666555
154	0x3e2de4c4	0.16981798
155	0xbd8b0592	-0.06788172
156	0x3d4b525a	0.049639083
157	0xbb2552a3	-0.0025226257
158	0xbe163e3e	-0.14672181
159	0xbe1496ad	-0.14510603
160	0x3d84a8bb	0.06477495
161	0xbcc7270c	-0.024310611
162	0x3d3bd30c	0.045855567
163	0x3cadafa6	0.02120192
164	0x3d0f8684	0.035040393
165	0xbd0f52a1	-0.03499091
166	0x3daa1f84	0.083067924
167	0x3c2923b3	0.010323453
168	0xbe271006	-0.16314706
169	0x3d7cbca1	0.061703328
170	0xbd273b3b	-0.04082797
171	0x3dc39e6a	0.095516995
172	0xbe123ab8	-0.14280212
173	0x3e866d79	0.26255396
174	0xbd4a6fa2	-0.049422868
175	0x3d016e0d	0.031599093
176	0xbcf199f3	-0.029492354
177	0xbbaa4833	-0.005196595
178	0xbcb69cae	-0.022291508
179	0xbb769a10	-0.003762845
180	0x3b3fa0c9	0.0029240123
181	0xbd72edf2	-0.059308954
182	0x3d9aab60	0.075522184
183	0xbd10dbf9	-0.035366032
184	0xbdf108c2	-0.117692485
185	0x3d6de1f6	0.05807682
186	0xbe96cb40	-0.29451942
187	0xbdc5b175	-0.09652988
188	0x3e28acb7	0.16472135
189	0x3e4b3a2f	0.19846414
190	0xbe00b471	-0.12568833
191	0x3e26307a	0.1622943
192	0x3da1e2e4	0.07904604
193	0x3c3af383	0.011410597
194	0xbd53181c	-0.051536664
195	0xbe445025	-0.19171198
196	0xbdc09565	-0.09403495
197	0x3caa218a	0.020767946
198	0xbc61ecdf	-0.013789385
199	0x3c494bae	0.01228611
200	0xbe01b98c	-0.12668437
201	0xbd847bbe	-0.064689144
202	0xbdabee3e	-0.083950505
203	0x3d9e454c	0.07728061
204	0xbd17c877	-0.037056413
205	0xbdcc73ab	-0.099829994
206	0x3d6a235b	0.057162624
207	0x3e81741f	0.25283906
208	0x3d182b6d	0.03715079
209	0x3d2cbd5c	0.042172775
210	0xbbb68b88	-0.0055708326
211	0xbdbe9af7	-0.09306901
212	0xbd9dc81a	-0.07704182
213	0xbd77b91d	-0.060479272
214	0xbd144b16	-0.03620442
215	0x3dc298f7	0.09501832
216	0xbe0afc4c	-0.13572806
217	0xbc8825b9	-0.01661955
218	0x3d812607	0.06306081
219	0xbe2f7e18	-0.17137945
220	0x3d8e1bc0	0.06938887
221	0x3cd01ed2	0.025405321
222	0xbd6e23b9	-0.058139537
223	0xbe1c83d6	-0.15284666
224	0xbdab998d	-0.08378897
225	0x3e1048fd	0.14090343
226	0xbde8a412	-0.11359419
227	0x3b398bb8	0.0028312039
228	0xbbbd5471	-0.0057778885
229	0x3c4ccaf3	0.012499559
230	0x3d55d2d3	0.05220301
231	0x3d19f972	0.037591405
232	0xbd86a2f7	-0.06574052
233	0xbdc80f93	-0.097685955
234	0xbd8d702d	-0.069061615
235	0xbd3a4a86	-0.045481227
236	0x3de56b8e	0.11202155
237	0xbb45e788	-0.0030197818
238	0xbdd02ed9	-0.101651855
239	0x3d09ddba	0.03365872
240	0x3d460cb6	0.048351966
241	0xbc1bb60b	-0.009503852
242	0xbe5bde16	-0.21471438
243	0x3d0d27e6	0.03446188
244	0x3e0f42b8	0.13990295
245	0x3d9193a4	0.07108238
246	0x3b1084bb	0.002205177
247	0x3d8fbec6	0.07018809
248	0xbd26e785	-0.040748138
249	0x3d1f56fd	0.038901318
250	0x3d83cb91	0.064353116
251	0x3c6d8a24	0.014498267
252	0x3c9d5423	0.019205159
253	0xbe24f885	-0.16110428
254	0x3c2262ea	0.009911278
255	0xbdfcbc1f	-0.12340569

fc2.bias f4 [84]
0	0x3e4984bc	0.1967954
1	0x3e716e87	0.23577319
2	0x3f2f2489	0.68415123
3	0x3e79c263	0.24390559
4	0x3e85ee60	0.26158428
5	0x3effca32	0.4995895
6	0x3c0c00f5	0.00854515
7	0x3bf963f1	0.007610791
8	0x3f4ee234	0.8081391
9	0x3eb130e7	0.34607622
10	0xbdb213fb	-0.08695217
11	0x3e74beaf	0.23900865
12	0x3f43ef6b	0.765372
13	0xbc7a0525	-0.015260016
14	0x3e6c1a3f	0.23056887
15	0x3e2ece31	0.17070843
16	0x3f10e6b1	0.5660201
17	0x3e26b030	0.16278148
18	0xbd4bcde1	-0.04975689
19	0x3dd7dfff	0.10540771
20	0x3e96d3a2	0.29458338
21	0xbcbb989a	-0.022899915
22	0xbd897f16	-0.06713693
23	0x3e19bba9	0.15012993
24	0x3d6a3110	0.057175696
25	0xbd515ecf	-0.051115807
26	0x3f3fe6bc	0.7496145
27	0x3e83c3e7	0.257354
28	0x3f1c1e44	0.6098368
29	0x3d0b40b6	0.03399726
30	0xbc80e066	-0.015732002
31	0x3e7cab8e	0.24674818
32	0xbe366564	-0.17812115
33	0xbd294eda	-0.041334964
34	0xbcfa0a89	-0.030522602
35	0x3ef7f78f	0.4843106
36	0x3e5f699a	0.21817628
37	0x3f4dfc8a	0.8046347
38	0x3d2bf523	0.041981827
39	0x3ed4ac81	0.4153786
40	0xbc133834	-0.008985568
41	0x3e92547a	0.28580076
42	0x3e54bc5a	0.20774975
43	0x3bc12ae0	0.0058950037
44	0x3e99a1c5	0.30006233
45	0xbda5b258	-0.08090657
46	0x3e81b27a	0.2533148
47	0x3dee5b55	0.11638514
48	0xbe0f34b0	-0.13984942
49	0x3d86d773	0.065840624
50	0x3edc72c0	0.43056297
51	0x3f150cd9	0.5822273
52	0xbd19be3c	-0.037534937
53	0x3f7fbeec	0.999007
54	0xbe07b52d	-0.13252707
55	0xbd814f1e	-0.063139185
56	0x3e013192	0.12616566
57	0x3d9b1f99	0.07574386
58	0xbd68f9c4	-0.05687882
59	0xbdd48e69	-0.10378725
60	0x3ee2bbf8	0.44284034
61	0x3c1af259	0.009457194
62	0xbcb99dd3	-0.022658264
63	0x3f345cc3	0.70454043
64	0x3b2008cc	0.0024419306
65	0xbd8ae1ee	-0.06781374
66	0x3e9f9a6c	0.31172502
67	0x3eb919ae	0.36152405
68	0x3c938e61	0.018012227
69	0x3eb643a4	0.3559848
70	0x3ee5e903	0.44904336
71	0x3db86ea0	0.09005475
72	0x3ebedc99	0.37277678
73	0xbd97b5ca	-0.074077204
74	0x3db05b67	0.086111836
75	0x3f46cedf	0.7765941
76	0xbdb5c561	-0.08875538
77	0x3e5767b3	0.21035652
78	0x3ed193d8	0.40933108
79	0x3e17d15f	0.14825962
80	0x3e1d7d75	0.1537989
81	0x3f84bccb	1.0370115
82	0xbcfefa4f	-0.031125216
83	0x3e577cfe	0.21043774

fc3.weight f4 [10, 84]
0	0x3e64c7a3	0.2234178
1	0x3dd1a2d1	0.10236133
2	0xbc280386	-0.010254746
3	0x3ee93951	0.4555154
4	0x3e80a78b	0.25127825
5	0x3e2d5d05	0.16930015
6	0x3e0a591f	0.1351056
7	0xbd240f0f	-0.040053423
8	0x3eb51fd5	0.35375848
9	0x3d4af2b2	0.04954786
10	0xbd8b4d9c	-0.06801912
11	0xbe52e382	-0.205946
12	0xbeb75da3	-0.35813627
13	0xbcc0b52a	-0.023523886
14	0x3f214660	0.6299801
15	0xbd503555	-0.05083211
16	0x3e8717dc	0.2638539
17	0xbded32e8	-0.11581975
18	0x3ce4bd8e	0.027922418
19	0x3d96f1fc	0.073703736
20	0xbdb2a05d	-0.08721993
21	0x3d63a815	0.055580217
22	0xbdd391ec	-0.10330567
23	0x3d909cc6	0.07061152
24	0x3b825efc	0.003978608
25	0xbd083cf0	-0.03326124
26	0xbe67ef60	-0.22649908
27	0xbc08c7c1	-0.008348406
28	0xbdd0b3b1	-0.101905234
29	0x3e2ee61c	0.17079967
30	0xbdf1cf99	-0.11807174
31	0xbdc5c9cd	-0.09657631
32	0x3e81d745	0.2535955
33	0x3db54b58	0.08852261
34	0xbd601d80	-0.054715633
35	0xbe41f99c	-0.18942875
36	0xbe9f4cf9	-0.31113413
37	0xbe8d5951	-0.27607206
38	0x3eb82b85	0.35970703
39	0x3d20d282	0.039263256
40	0x3e8827e2	0.26592928
41	0xbea8d789	-0.3297694
42	0x3e5fc251	0.2185147
43	0x3e28a205	0.16468056
44	0xbdceca97	-0.10097235
45	0x3b0ef489	0.0021813235
46	0xbd10d72c	-0.035361454
47	0xbe0bf95b	-0.1366934
48	0x3d026c25	0.031841416
49	0x3d4c508f	0.049881514
50	0x3d4901cc	0.04907398
51	0xbe49eb3e	-0.19718644
52	0x3d9dc287	0.07703119
53	0x3f0c2e6c	0.54758334
54	0x3d52e11b	0.05148421
55	0xbe111a7a	-0.14170256
56	0x3f010710	0.504014
57	0x3e81568d	0.25261346
58	0x3da337e9	0.079696484
59	0xbde8d7be	-0.113692746
60	0xbcd84b28	-0.026403025
61	0xbda8b3de	-0.08237432
62	0x3de949e0	0.11391044
63	0xbdcc7cfe	-0.09984778
64	0x3ccc38d8	0.024929449
65	0x3d6ba176	0.057527028
66	0xbdf1dfa3	-0.118102334
67	0xbec9b755	-0.39397684
68	0xbbb4d6f2	-0.0055187875
69	0xbd8cf36c	-0.068823665
70	0x3ce982bf	0.028504727
71	0x3e39fcad	0.18162794
72	0x3e93bd31	0.2885528
73	0x3cd6fd04	0.026243694
74	0xbe1a185d	-0.15048356
75	0xbea39d93	-0.31956157
76	0xbce4c293	-0.027924811
77	0xbdcd6506	-0.10029034
78	0x3dd284ed	0.1027926
79	0x3de0b2f6	0.10971634
80	0x3c7d19d4	0.015448052
81	0xbeb9d088	-0.3629191
82	0xbd53ba0d	-0.051691104
83	0x3e8c70e1	0.2742987
84	0x3d11648b	0.035496276
85	0x3dc7ebf4	0.09761801
86	0xbec4c2ef	-0.38429973
87	0x3d60ffb6	0.054931365
88	0x3e89597d	0.26826087
89	0xbb941afe	-0.0045198193
90	0xbdb48aa0	-0.08815503
91	0xbc8dd7dc	-0.017314844
92	0xbec595e6	-0.38590926
93	0xbe15a258	-0.1461271
94	0x3e120b94	0.14262229
95	0xbd4eac2a	-0.050457157
96	0xbd6fbfc3	-0.058532488
97	0x3c12c0bb	0.008957083
98	0xbe90256b	-0.28153548
99	0xbe42bd47	-0.19017516
100	0xbe98802f	-0.29785296
101	0x3ea1d1d0	0.31605387
102	0x3d9c2d48	0.07625824
103	0xbda48e9d	-0.08035014
104	0x3d268bc8	0.04066065
105	0xbd82d8fa	-0.06389041
106	0x3c79d396	0.0152482
107	0x3e6d9858	0.23202646
108	0xbd08611a	-0.03329573
109	0xbdd50175	-0.104006685
110	0xbeb98c91	-0.36240056
111	0xbe6addc8	-0.22936165
112	0x3e9b0faa	0.30285388
113	0x3d700cf0	0.05860609
114	0x3dda7bdf	0.10668158
115	0x3e5f2351	0.21790816
116	0x3dab57c3	0.083663486
117	0x3c146e0c	0.00905944
118	0x3d29522a	0.041338123
119	0x3e6c2859	0.23062266
120	0xbe3b98a8	-0.18319952
121	0x3da30334	0.07959595
122	0xbe8a8e19	-0.27061537
123	0x3eb61164	0.35560143
124	0x3d4fb42d	0.05070894
125	0xbe28527f	-0.1643772
126	0xbd9c2412	-0.07624067
127	0x3e1d472b	0.1535918
128	0x3e91def4	0.28490412
129	0xbddd5da1	-0.10808874
130	0xbdf5cfd8	-0.12002534
131	0x3e88249a	0.26590425
132	0xbda66c14	-0.08126083
133	0xbe13fd88	-0.14452183
134	0xbd95a7d8	-0.07307404
135	0xbecbb8b8	-0.39789367
136	0xbb32ecf5	-0.0027301882
137	0xbe967684	-0.29387295
138	0xbe38b838	-0.18039024
139	0xbae34794	-0.0017340058
140	0xbdbe88d5	-0.093034424
141	0x3db56b10	0.08858311
142	0x3d995c08	0.07488257
143	0xbd2c58f1	-0.04207701
144	0x3e92f11c	0.28699577
145	0xbcc4093f	-0.02393019
146	0xbca3f75b	-0.02001541
147	0xbef77941	-0.48334697
148	0xbd709072	-0.058731504
149	0xbea654ea	-0.3248666
150	0xbd1dc2b3	-0.038515758
151	0xbc943aa3	-0.018094366
152	0x3dd52b89	0.10408694
153	0x3e5a9733	0.2134674
154	0x3df19eb5	0.11797849
155	0x3d87651e	0.066110834
156	0x3e996236	0.29957741
157	0xbd7a414f	-0.06109744
158	0xbe01f7d6	-0.12692198
159	0xbe9dda13	-0.3083044
160	0xbdc701ea	-0.09717162
161	0x3e64fb70	0.22361541
162	0xbe74ba25	-0.23899134
163	0x3e8d3202	0.27577215
164	0xbcf5de54	-0.03001324
165	0xbda55b09	-0.08074004
166	0x3da78ffd	0.081817605
167	0x3e54c24f	0.20777248
168	0xbe19c5da	-0.1501688
169	0xbe231e03	-0.15929417
170	0x3e38b1ed	0.18036623
171	0xbe36b9a1	-0.1784425
172	0xbe29c7f8	-0.16580188
173	0x3eb32924	0.34992325
174	0xbda82943	-0.08210995
175	0x3e733872	0.23752001
176	0x3e26c9bc	0.16287893
177	0xbe68cf7e	-0.22735402
178	0x3df94bc7	0.121726565
179	0xbe14d950	-0.14536023
180	0xbe996f11	-0.2996755
181	0xbd3185d1	-0.043340508
182	0xbc5f35fc	-0.013623711
183	0x3dda69e2	0.10664727
184	0x3f3a3b8f	0.7274713
185	0xbd36b202	-0.044603355
186	0xbd892775	-0.06696979
187	0x3d5914e9	0.052998457
188	0xbca2d277	-0.019875748
189	0xbde54ac8	-0.11195904
190	0x3e13f99b	0.14450686
191	0x3e3348b6	0.17508206
192	0xbe297152	-0.16547135
193	0xbd17f851	-0.037102047
194	0xbd9f9f3b	-0.07794043
195	0x3e6417c5	0.22274692
196	0xbe4c4a40	-0.19950199
197	0x3e0446ec	0.1291768
198	0xbd6a9a5f	-0.057276126
199	0x3e0a8222	0.13526204
200	0x3e5debc6	0.21671972
201	0xbd8a906c	-0.067658275
202	0xbd37e970	-0.044900358
203	0xbda941ef	-0.08264529
204	0x3d3e23fd	0.04642104
205	0xbe24f1b2	-0.16107824
206	0x3db7165b	0.08939811
207	0xbe4a2dff	-0.19744109
208	0x3e289a6e	0.1646516
209	0xbdf69507	-0.120401435
210	0x3d466fd9	0.04844651
211	0x3e719070	0.23590255
212	0xbe7d4c51	-0.24736144
213	0x3b47f540	0.003051117
214	0xbcdfeaf8	-0.027333722
215	0xbcf29993	-0.029614246
216	0xbcbd0d81	-0.023077728
217	0x3eafb5dd	0.34318438
218	0xbddd82f2	-0.108159915
219	0x3e55e476	0.20887932
220	0xbd83a32e	-0.064276084
221	0x3dbe4f8c	0.09292516
222	0xbd723311	-0.059130732
223	0x3e037508	0.12837613
224	0x3dc0e01a	0.09417744
225	0xbc5b4b96	-0.01338472
226	0xbdbb4957	-0.09144848
227	0x3db9795a	0.09056349
228	0xbd73df8b	-0.05953936
229	0xbdc7e9af	-0.097613685
230	0x3e0edabc	0.13950628
231	0x3ec59f11	0.3859792
232	0xbd4a595b	-0.049401622
233	0x3e267fa6	0.16259632
234	0x3d33f603	0.043935787
235	0x3e226a26	0.15860805
236	0xbbb6b4d8	-0.0055757575
237	0x3defbee9	0.11706335
238	0xbbc2ebd8	-0.005948525
239	0xbdec3f5e	-0.11535524
240	0xbe654f1e	-0.22393462
241	0x3dd25aa9	0.10271198
242	0xbcd6d8a6	-0.026226353
243	0x3e83b80e	0.2572636
244	0x3ca0f191	0.019646438
245	0xbd8dc307	-0.06921964
246	0xbd639c81	-0.055569176
247	0x3da9719f	0.08273625
248	0x3e22ce40	0.1589899
249	0xbd40cf97	-0.047072973
250	0x3d6907e0	0.056892276
251	0x3bd089aa	0.006364067
252	0x3e3fdc72	0.18736437
253	0xbd47d383	-0.048785698
254	0x3db9cd0f	0.09072315
255	0xbe318900	-0.17337418

fc3.bias f4 [10]
0	0xbf07506b	-0.52857083
1	0xbe0020c1	-0.12512495
2	0xbda8de11	-0.08245481
3	0xbd4d50f1	-0.05012602
4	0x3eaa104e	0.33215564
5	0x3da1d4cc	0.07901916
6	0x3e64ad49	0.22331728
7	0x3c835fd7	0.016036911
8	0xbd55fd24	-0.052243367
9	0xbdeacbbf	-0.11464643
