icv/W06_for_students/cifar_net_100e_kernel-3.pth (torch, 257560 bytes, 10 tensors)

conv1.weight f4 [10, 3, 3, 3]
000000 40 01 c1 bd 3c 50 08 be e4 f1 2e 3e 71 f2 ee bd
       -0.094240665 -0.13311857 0.17084461 -0.11667336
000010 eb 1b 26 3d 48 21 37 3e d9 29 19 be fd e9 26 be
       0.04055397 0.1788379 -0.1495737 -0.16300197
000020 c4 95 ba bd fb fd d9 3d 95 1b 17 3e 05 fa 13 3e
       -0.09110597 0.10644146 0.14756615 0.14450844
000030 c2 02 c3 3c 01 37 35 3e 05 bd a4 bd d1 81 b4 3c
       0.023805026 0.17696764 -0.08043865 0.022034558
000040 62 c1 e2 bd c6 f7 99 bd a3 15 84 bd a6 5d 00 3e
       -0.11072041 -0.07517962 -0.064494394 0.12535724
000050 4a 4d 97 3d a2 2f c1 bb 82 8c a0 bc b4 19 2d be
       0.073877886 -0.005895571 -0.01959825 -0.16904336
000060 f3 d5 15 3e 08 62 9a bc c0 de f5 bd 9d 59 0d be
       0.14632396 -0.018845573 -0.12005377 -0.13803716
000070 37 6b 21 be 2f a1 09 3d 89 4f 0e 3e 03 28 0c 3b
       -0.15763555 0.033600982 0.13897528 0.0021386154
000080 ad b3 e8 3d a2 ef 14 3d 66 6f c9 3d 24 c0 35 3e
       0.113623954 0.036361344 0.09835701 0.17749077
000090 09 2b 2c be c9 b9 5d bd 2c c5 a9 bd 25 5b 07 be
       -0.16813292 -0.054132257 -0.08289561 -0.13218363
0000a0 f9 20 33 3e 0f 0b 40 3d c5 26 2a 3b bb e5 40 3d
       0.17493047 0.046885546 0.002596305 0.047094088
0000b0 a8 4f 31 3e 18 6b a0 3d 74 83 9d 3d 59 97 9b 3c
       0.17315543 0.078329265 0.07691088 0.018993067
0000c0 1b ae 1b 3e 40 02 2e be 84 96 23 3e 07 13 14 be
       0.15203135 -0.16993046 0.15975386 -0.14460383
0000d0 70 ca 23 be 9f 9f c9 3d 5a e1 72 bc 43 5e cd bd
       -0.15995193 0.098448984 -0.014824236 -0.100277446
0000e0 36 3d 41 be 61 d1 1b be d6 2c 20 3d 8a 21 ee 3d
       -0.18871006 -0.1521659 0.03910526 0.11627491
0000f0 15 f8 8f bd cd 60 c8 3d d0 c8 d3 bd cd 14 f2 3d
       -0.0702974 0.09784088 -0.10341036 0.11820374
000100 ff 41 9b bd 92 1d 17 be f5 b6 ff bd 66 44 d4 3c
       -0.07580947 -0.14757374 -0.12486068 0.025911521
000110 b5 96 08 3e 76 a3 2e be 85 49 de bd 4e 35 89 3d
       0.1333874 -0.17054543 -0.108538665 0.0669962
000120 84 cc 96 bd 8c 1f 82 bd 10 20 3a be 39 45 6a 3c
       -0.07363227 -0.06353673 -0.18176293 0.0142987305
000130 06 2d 2a 3d 4a 45 69 3d 9c 5d 2e be df 35 0c be
       0.041546844 0.056950845 -0.17027897 -0.13692425
000140 e7 15 05 be cf 5f bc bd 18 63 f0 bd 12 10 15 3e
       -0.12996636 -0.091979615 -0.11737651 0.14556912
000150 a9 f6 2c 3e 9b c6 56 3d bc c6 90 3d 1f 85 c0 bc
       0.16890968 0.0524355 0.070691556 -0.023500977
000160 04 07 33 be de c6 00 bd 1e 6e 29 3e 6c dc 59 bd
       -0.17483145 -0.031439655 0.16545913 -0.053188726
000170 b1 97 34 be 3a 03 e5 3b f6 76 be 3c bd 11 90 bd
       -0.1763599 0.00698891 0.023250084 -0.07034633
000180 53 8d 31 3e 4b 1d de 3d ca 9d 13 bc 3c 97 59 3c
       0.17339067 0.10845431 -0.009009788 0.013280686
000190 99 4c 3a 3b ce 7d 55 bd 3f aa c6 bd b6 07 d8 3c
       0.0028427003 -0.05212193 -0.097004406 0.026370864
0001a0 b6 03 c7 bd e2 0c bf bd 58 c8 95 bd 43 96 90 bd
       -0.09717505 -0.09328629 -0.07313603 -0.0705991
0001b0 ec 56 1e 3e d0 89 18 3e db e1 aa 3d 40 3d 5e 3b
       0.15462846 0.14896321 0.0834386 0.003391102
0001c0 2f 3a 43 3e ca 9e b5 bc 0a 15 ee bd 8a cb 5a 3c
       0.19065164 -0.022170443 -0.11625107 0.013354192
0001d0 81 94 83 bd 05 40 90 3d cc 61 9b bd f2 95 ba 3d
       -0.06424809 0.07043461 -0.07587013 0.09110631
0001e0 76 a1 85 bd 86 29 0a be 1c bb 27 be 1f da 08 be
       -0.06524937 -0.13492402 -0.1637997 -0.13364457
0001f0 ea ad 07 be 43 8c b1 3d 00 fb 24 3d fc 37 69 bd
       -0.13249937 0.08669331 0.040278435 -0.056938156
000200 c5 f7 38 be 97 e4 9e bd eb c4 40 3e 2d b5 62 3c
       -0.18063267 -0.07758444 0.18825118 0.013837141
000210 94 7e d9 bd 6f d1 b6 3d 66 83 22 3e c0 5c da bd
       -0.10619846 0.08926665 0.15870437 -0.10662222
000220 c4 78 01 3e 79 26 b7 3d ea c3 40 3e 83 46 2c be
       0.12643725 0.08942885 0.18824735 -0.16823773
000230 be a3 f0 3d 94 ac c8 bc b9 7e 17 be 49 e2 20 be
       0.11749981 -0.024496354 -0.14794435 -0.15711321
000240 8f 16 03 3d 07 aa 00 be 81 d9 da bd af 87 21 3e
       0.032003935 -0.1256486 -0.10686017 0.15774415
000250 bd c3 8e bd d2 9b 08 be b4 9b 4d bd bc 87 04 be
       -0.06970928 -0.1334069 -0.05019732 -0.12942404
000260 e2 80 86 3c fd 87 cd 3d f8 b9 8a ba 56 e6 f8 bd
       0.016418878 0.10035703 -0.0010583987 -0.12153308
000270 db d8 32 3e ec 69 bc 3d 7f d5 03 be 67 76 bf 3d
       0.17465536 0.091998905 -0.12874411 0.09348755
000280 27 3f 17 bd 0d 82 3e 3d bf 6b bd bc 97 c4 b3 bd
       -0.03692546 0.046510745 -0.023122666 -0.08777731
000290 41 9e 40 3e 7a ea a1 3d 48 00 23 bd 9a 30 2c be
       0.18810369 0.07906051 -0.03979519 -0.16815415
0002a0 1c b9 a0 3d b4 a7 b7 bc ef 66 11 be c0 c9 20 3e
       0.07847807 -0.022418834 -0.14199422 0.15701962
0002b0 12 55 29 bd 25 1d 4a bd b0 4b d0 3b 4a 3b c3 3d
       -0.041340895 -0.0493442 0.006356679 0.09532793
0002c0 7f 4f 3c bc 6f 26 2a 3d a6 f5 e8 bd 98 78 7a 3d
       -0.011493563 0.04154056 -0.11374979 0.061150163
0002d0 61 82 c2 bd d4 d6 50 bc 03 c0 d2 3d b0 a8 2e 3e
       -0.09497524 -0.0127465315 0.102905296 0.17056537
0002e0 8c 22 ca 3d a0 d7 cb 3d 96 e7 b0 3d 91 8e 2d bd
       0.098698705 0.099532366 0.086379215 -0.04237229
0002f0 32 6c 1b be be 4f 40 be d7 95 26 be af 76 d5 3c
       -0.15177992 -0.18780419 -0.16268097 0.02605757
000300 30 33 00 bd fa c8 af bd 7a 2a 04 3e 3a 17 28 3e
       -0.031298816 -0.08583255 0.12906829 0.1641511
000310 18 64 89 3d 8c 63 fc bd 6f 2e de 3c 68 cc fa bd
       0.067085445 -0.123236746 0.02712175 -0.12246019
000320 85 41 4e 3d 7f ff d4 bd 83 4a 22 3d 44 e9 35 bd
       0.050355453 -0.104002945 0.03962184 -0.044411913
000330 b6 97 96 bd 27 9e 90 bd 59 50 b8 3d 30 30 2c 3e
       -0.07353155 -0.07061415 0.089997 0.16815257
000340 aa 7a 33 3e 70 03 b6 bd d8 21 08 be 50 c4 07 3e
       0.17527261 -0.088873744 -0.1329416 0.13258481
000350 d8 8f af 3d c6 d9 1d be 44 eb b2 3c 75 60 b3 3d
       0.08572358 -0.15415105 0.021840699 0.08758632
000360 c6 22 e8 bd a7 33 57 3d 5c 5e 1f bc fd cf 25 3e
       -0.113347575 0.052539494 -0.009727087 0.16192622
000370 ad ed 21 3d 7d a7 08 be 8c 3d bd 3d fa 32 dc 3d
       0.039533306 -0.13345142 0.09240255 0.107519105
000380 7e 52 ba 3d 3b c4 24 3e 1f 6f 06 3e 92 8c d6 3d
       0.090977654 0.16090481 0.13128327 0.104760304
000390 95 e0 d9 bd af 19 2e 3d 0c 68 0c 3e be d4 04 be
       -0.10638539 0.042504963 0.13711566 -0.1297178
0003a0 99 11 2e be e1 f2 99 bd 4b e6 d3 3c d1 8c 83 3d
       -0.169989 -0.075170286 0.025866648 0.06423343
0003b0 20 28 39 3e ec 02 3d be 04 d4 23 3e 63 dd 4b 3c
       0.18081713 -0.18458146 0.15998846 0.012442919
0003c0 60 08 70 3d 2b a5 b4 3d ce 22 d4 bd fe 74 74 bd
       0.058601737 0.08820566 -0.10358201 -0.059681885
0003d0 e1 61 e9 3d 4a fb 9b 3d 22 df f3 bd 37 83 ea 3d
       0.11395622 0.07616289 -0.119077936 0.114508085
0003e0 fc 1b 87 bd db bb ca bd c4 f4 03 bd 38 9a 60 bd
       -0.065971345 -0.09899112 -0.03221585 -0.054834574
0003f0 f4 76 20 bc 26 70 03 3e 7e 46 30 be 3f eb af 3b
       -0.009793986 0.1283575 -0.1721439 0.0053686197

conv1.bias f4 [10]
000000 2f f6 43 3d 54 29 ad 3d 6d a6 24 3e d3 87 3a be
       0.0478422 0.08455148 0.16079111 -0.18215875
000010 74 c1 8e bd c9 0c 1b bd 8c fa 0e be 09 52 3d be
       -0.06970492 -0.03785399 -0.13962764 -0.18488325
000020 4e 2d 05 3e 9e c8 0c 3e
       0.13005564 0.13748404

conv2.weight f4 [16, 10, 5, 5]
000000 5d c0 5b 3d bd e6 1e bd d9 2c 95 bc 7a f2 a4 bc
       0.05365025 -0.038794268 -0.018209862 -0.020135153
000010 74 c5 91 bc 74 01 55 bd 13 de c5 bc f6 54 d5 3c
       -0.017794348 -0.05200334 -0.024153745 0.02604149
000020 ec 1f b6 bb 2d 30 2a bd dd 38 9b bc 79 25 cc bc
       -0.0055580046 -0.04154985 -0.018948013 -0.024920212
000030 b0 12 bc 3c 95 4e 3d 3d 8f 9c 7b bb ff 80 48 bd
       0.02295813 0.04621752 -0.0038392877 -0.048951145
000040 3f b6 79 3d fc 02 1f 3b ff 64 69 3d 35 f8 0a 3d
       0.06096482 0.0024263253 0.056981083 0.033928115
000050 73 31 e4 3c 40 c6 40 bc b3 ed 4e 3d fa 27 68 bd
       0.02785561 -0.0117660165 0.050519656 -0.05667875
000060 cf af 50 3d 2e 63 ac bc 31 0a 50 bc 73 61 43 bd
       0.050948914 -0.021043386 -0.012697742 -0.047700357
000070 c7 c4 30 bd 10 e6 41 bd bb 34 11 3d fd 55 8d 3c
       -0.04315641 -0.047338545 0.03545068 0.017252916
000080 48 d3 c8 bc 7b b9 30 bd 49 98 8c bc 90 45 12 bd
       -0.02451481 -0.043145638 -0.017162459 -0.03571087
000090 48 fb d6 3c 93 2f 5d bd 90 1e da 3c 1e 35 9b 3c
       0.026242867 -0.05400045 0.026625901 0.018946227
0000a0 a0 3c dc b8 0e 70 92 3c a8 7d eb b9 ff 63 b0 bb
       -0.0001050171 0.017875697 -0.00044916314 -0.005383014
0000b0 c6 bc ff bc 4b 5b 1f bd fa b1 72 bd 36 d0 40 3c
       -0.031217944 -0.038905423 -0.059251763 0.011768391
0000c0 0d cf 5a 3d 95 dc 67 3c ef 83 a8 3c 5d d5 8c bc
       0.053420115 0.014151712 0.020570723 -0.017191583
0000d0 89 83 3a bd 27 18 ba bb 48 79 c1 3c 1c fa 29 3c
       -0.045535598 -0.0056791487 0.023617402 0.010374572
0000e0 fd 09 76 3d 47 db 67 3d b7 41 05 bd 4f b8 6a 3d
       0.06006812 0.056605604 -0.032533374 0.057304677
0000f0 67 a8 49 bd 82 de a5 3c 98 27 3e bd 6e fa 0b bd
       -0.049232867 0.020247702 -0.04642448 -0.034174375
000100 b6 c4 70 bb b3 9a 65 3d 98 a7 ba bb cf a1 5b bd
       -0.0036738343 0.056055736 -0.0056962483 -0.05362111
000110 f7 9e 7d bc 47 fd b3 bc aa 44 ac bc 84 1d 0f 3c
       -0.015479795 -0.021971358 -0.021028835 0.008735064
000120 53 21 41 bb b3 d8 26 3d 77 42 54 bd 6c 5b e1 bc
       -0.0029469326 0.040734004 -0.0518212 -0.027509414
000130 d0 d7 57 3d 8d ad 52 bd 0e 3d b2 3c 7d 76 68 3c
       0.05269605 -0.051435042 0.021757629 0.014188406
000140 84 ad 99 ba c8 04 73 3d 10 36 28 3d 1c 7e 02 bc
       -0.0011724685 0.05933073 0.041067183 -0.007964637
000150 e5 3d 65 bd b9 8b 11 bb 19 de 17 3d 7e 33 1e bd
       -0.05596723 -0.0022208525 0.037077043 -0.038623326
000160 7e b3 74 bd b0 07 3e bd 8e 57 d7 3c c5 d5 32 bd
       -0.05974149 -0.04639405 0.026286867 -0.043660898
000170 5a 38 e9 3c 06 aa 4a 3d 5d 34 90 3b 44 90 db 3c
       0.028469253 0.049478553 0.0044007734 0.02680219
000180 0a 27 8a 3b b2 5d 60 bd d8 e0 15 bd 49 b2 58 bc
       0.0042160796 -0.054776855 -0.03659138 -0.0132261
000190 f2 f4 2d 3d 3e 3b 34 bc b3 97 dc b9 bc 28 60 3d
       0.042469926 -0.011000453 -0.00042074695 0.054726347
0001a0 45 ba 33 3d b5 0b 1b bc 67 e8 32 3a 54 16 8b 3c
       0.043878812 -0.00946324 0.0006824792 0.01697842
0001b0 42 ae 54 bd 50 37 4e 3b 7a bf 65 bd d6 f7 78 3d
       -0.051923998 0.0031466074 -0.05609081 0.06078323
0001c0 df 9f f1 3c 57 51 68 3d 21 fb 10 bd 05 b9 45 3d
       0.029495178 0.056718197 -0.035395745 0.04827215
0001d0 68 95 f9 3c 0c ef d0 3c e5 6c 24 bd 22 99 e1 3c
       0.03046675 0.025504611 -0.040142912 0.02753884
0001e0 45 29 a0 3c 66 24 03 3d 29 3b d7 3c 00 1c 9f 3c
       0.019550929 0.032017134 0.026273327 0.019422531
0001f0 72 3c 03 3d f6 c9 cd 3c dd bc 22 3d 2c f9 28 3c
       0.032040067 0.025120717 0.039730895 0.010313313
000200 80 f8 5a bd 83 73 0e bd ef b3 a0 bc e9 7d 72 bb
       -0.053459644 -0.03477813 -0.019617049 -0.0037001318
000210 bf 46 1b bc 09 54 67 bc 9f 4a 11 3d 43 2d 71 bd
       -0.009477316 -0.014119157 0.035471555 -0.058881056
000220 1c 9e 4e bd f0 66 22 bd 59 02 1d 3d 60 99 52 3d
       -0.050443754 -0.03964895 0.038332317 0.0514158
000230 c3 f1 17 bd eb a1 65 bd 2e 21 d6 bc 72 29 bf 3b
       -0.037095796 -0.05606262 -0.026138868 0.005833798
000240 64 01 f7 3c a6 5c f5 bc 93 0b 5a 3d 68 1a 65 bd
       0.03015203 -0.029951405 0.053233694 -0.055933386
000250 fe af ad bc 9d 1a 67 bd e9 41 50 bc 2d 84 6d bd
       -0.021202084 -0.056421865 -0.012711027 -0.05798738
000260 45 29 f8 bc 8f 60 f0 3c d4 fd 4f bc ef 2a 18 3d
       -0.030293116 0.029342918 -0.012694795 0.03715032
000270 e5 57 bd 3a 13 3f 1d bd 80 14 e5 bc 06 41 36 bd
       0.001444575 -0.03839023 -0.027963877 -0.044495605
000280 69 4b 22 3d 94 3b 0b 3d a1 3c 39 bc 1b 98 52 bd
       0.039622698 0.033992365 -0.011305959 -0.05141459
000290 36 f3 20 bd 83 03 3e 3d 76 80 37 bd f9 f7 3e 3d
       -0.039294444 0.046390068 -0.044800244 0.046623204
0002a0 45 0d 9a bc af 1b 7d bd 11 66 54 3c d5 eb 38 3c
       -0.018805156 -0.06179398 0.012963788 0.0112866955
0002b0 eb 71 26 3c 6e 6d 20 bd 6e ed 2e bd b2 73 8c 3c
       0.010158996 -0.03916686 -0.0427069 0.017145012
0002c0 94 85 a2 3b 67 80 ef bc 78 f8 24 bb 02 af 11 bd
       0.0049597714 -0.029236032 -0.0025172513 -0.03556729
0002d0 7e 85 0c bd 96 4a 0c bc 22 8f d7 bb f4 13 ae 3c
       -0.034306996 -0.008562705 -0.006578342 0.021249749
0002e0 ba 97 66 bd 5a 21 22 bd f1 a3 2f bd 03 35 0f 3c
       -0.05629704 -0.039582588 -0.042880956 0.008740666
0002f0 fb 6c 95 bc 87 6c 43 3d 6d aa 16 3b 43 ad e2 bc
       -0.018240442 0.04771092 0.0022989765 -0.027670508
000300 44 e4 1a bd 26 59 f2 3c 14 57 64 3b f2 25 02 bc
       -0.037815347 0.029583525 0.0034841942 -0.007943617
000310 e8 26 57 3d d2 32 69 3d 1e 55 a2 3c 87 30 79 3d
       0.05252734 0.05693323 0.019815978 0.060837295
000320 e5 44 13 3c 90 2b 3a 3d 1f c5 f0 3c 17 d8 08 3c
       0.008988594 0.0454517 0.02939087 0.008352301
000330 64 04 25 3d 85 b5 06 3d 17 bf 80 3b 29 12 57 3d
       0.04028739 0.032887954 0.0039290297 0.052507553
000340 14 5b 30 bc f9 18 d6 bb 39 cd 4f 3c f4 6c 6b bd
       -0.010763902 -0.0065337387 0.012683206 -0.057476953
000350 62 d1 a4 b9 82 af 45 bd 1e 4f fd bb 22 75 00 bd
       -0.0003143652 -0.04826308 -0.007730379 -0.031361707
000360 72 28 cc bc da 1a 63 bb 70 07 6f 3d bb 3c 03 3d
       -0.02492163 -0.0034653456 0.058356702 0.03204034
000370 fe 68 ea bc b6 fe f3 bc 5e 15 70 bd 4d e8 35 bd
       -0.028614517 -0.029784542 -0.058614127 -0.044410992
000380 ce 03 4c bd d9 8b c2 ba 58 70 21 3d 99 86 81 3d
       -0.049808316 -0.0014842703 0.03941378 0.063245006
000390 d4 0b 78 bd bb dd 4f bc e1 18 87 3b 60 e6 37 3d
       -0.060558155 -0.012687142 0.004122839 0.044897437
0003a0 e6 38 fc 3b d9 0c 57 3d cf 91 d8 ba f4 57 45 3d
       0.0076972125 0.052502487 -0.0016522947 0.04817958
0003b0 00 7d 6b 3d 5e 9d c2 3c d7 3a 0c 3c e4 69 3a bd
       0.057492256 0.02375668 0.00855895 -0.04551114
0003c0 80 90 02 3d 78 5e 17 bd cf 58 25 bd c5 83 17 3d
       0.031876087 -0.036955327 -0.040367898 0.0369909
0003d0 12 c0 58 3d a1 80 72 3c 1f 4f a7 3c 9e 86 ae 3c
       0.052917548 0.014801175 0.02042347 0.021304425
0003e0 81 03 3d 3d b5 2d 9e 3c fa b8 ae 3c a9 d5 70 bb
       0.04614592 0.019308904 0.021328438 -0.0036748445
0003f0 e4 72 0c bd f9 9a a2 bc bd cc 40 bd ac 7f 01 3b
       -0.034289256 -0.019849287 -0.047070254 0.0019759936

conv2.bias f4 [16]
000000 5d 25 4f 3d 56 2d 4d 3d 13 ba a2 3c 44 bd 45 3c
       0.05057274 0.050092064 0.019864118 0.01206905
000010 9b 50 0a 3d 27 89 fa bc 3d 7c 2f 3d e6 65 1d bd
       0.033768278 -0.030582977 0.042843092 -0.038427256
000020 6f ab 39 bb 28 26 eb bc 6c 3b 1d bd f2 64 17 bd
       -0.0028330942 -0.028704718 -0.038386747 -0.036961503
000030 c8 28 6a bd 53 83 ca bb d1 c2 67 3d 6b f4 18 bd
       -0.0571678 -0.006180206 0.056582276 -0.03734247

fc1.weight f4 [120, 400]
000000 9d cb b1 3c 93 2b 01 bd 53 d4 00 bc 80 a8 e6 bb
       0.021703536 -0.031535696 -0.007863122 -0.0070391297
000010 c2 0f 14 bd cd 84 69 ba 13 db 5b 3c 40 d3 9a 3b
       -0.03614784 -0.00089080335 0.013418931 0.00472489
000020 5a cf b2 bc 23 4c dd 3c aa ff a9 3c 33 34 fe 3c
       -0.021827389 0.027013844 0.020751793 0.03103075
000030 55 72 43 3d 58 2a 43 3d fa 99 37 bc a7 23 82 bb
       0.047716457 0.047647804 -0.0112061445 -0.0039715352
000040 4d 5c 0b bb 67 9a 41 ba ea 14 1d bd 1a 54 dd bb
       -0.0021264732 -0.00073853735 -0.038350023 -0.0067544105
000050 62 75 0e bd 7a 3d f4 bc 4d 20 4c 3b a0 3a 12 3c
       -0.034779914 -0.02981447 0.0031147182 0.00892511
000060 67 60 49 3a 67 e9 0d bc 4a f1 a1 3c fd 9f 29 3d
       0.00076819066 -0.0086616045 0.019768376 0.041412342
000070 7a 4e c0 3c 53 58 12 3d 67 aa cc 3b c7 1d 96 3c
       0.02347492 0.035728764 0.0062458995 0.018324746
000080 4a ea c4 3c b7 3b db bc 07 f9 38 bc b8 f9 38 3d
       0.024037499 -0.026761873 -0.0112898415 0.045160025
000090 d5 12 3b 3d 62 77 26 bd 1a 24 90 bc e7 d6 a2 3b
       0.045672256 -0.040641196 -0.01759534 0.004969466
0000a0 60 c6 83 3c 6d f7 06 3d c7 d1 93 bc af 5d 16 bd
       0.016085804 0.032950807 -0.018044366 -0.036710437
0000b0 b3 07 64 bc 43 e1 13 bd 17 0b be bc 9a 41 06 bb
       -0.013917851 -0.0361035 -0.023198647 -0.002048588
0000c0 e7 b8 7a 3c 07 85 f4 3c 5a 4a 81 bb 0d 90 fa 3c
       0.015302873 0.029848589 -0.003945631 0.030586267
0000d0 18 47 2a bd ba ab 79 bc 55 92 09 3d af fa 0c bd
       -0.041571707 -0.015238697 0.03358682 -0.034418758
0000e0 0d 4d 48 bc e7 cd 11 3c c5 70 41 bd 2a f2 38 3d
       -0.012225402 0.008899189 -0.047226686 0.04515282
0000f0 a0 5a d7 bc 43 29 e7 3c 48 31 46 3d 27 e6 c6 bb
       -0.02628833 0.028217917 0.048386842 -0.0060699168
000100 53 b3 c1 3c 20 e3 41 bc 40 c8 2e 3c 6d b5 31 bd
       0.023645079 -0.011833936 0.0106678605 -0.04338591
000110 4d fa 7f 3b d0 f5 02 bd c0 e8 28 3c 5a 83 2c 3c
       0.0039059103 -0.031972706 0.010309398 0.0105293635
000120 22 03 17 3d 03 32 9d 3c b8 6b 48 3d ed b6 31 bc
       0.036868222 0.019188887 0.048930854 -0.010846836
000130 5b c2 08 3d c3 92 a1 bc 73 98 80 3b e0 6a 03 bc
       0.033388477 -0.019723302 0.0039244234 -0.008021086
000140 3d 54 b2 3c d0 1b 4a bd 6d 34 32 bc eb 02 1f 3d
       0.021768684 -0.04934293 -0.010876757 0.038821142
000150 f8 17 1b bd 1d 45 3c bd 9f 33 4c 3d 27 44 f8 3c
       -0.037864655 -0.04596435 0.049853917 0.030305935
000160 38 07 11 3d 4f f4 25 bd 20 1a 32 3c ed 87 31 bc
       0.035407275 -0.040516194 0.0108704865 -0.01083563
000170 f0 39 25 3d a7 79 96 bb 08 32 17 3d ad 92 bf 3c
       0.040338457 -0.004592139 0.036912948 0.02338537
000180 57 76 b8 3c bf 97 14 bd 03 a4 45 bd 27 92 01 3d
       0.022517366 -0.03627753 -0.048252117 0.031633522
000190 8a 66 39 bd 3b 7c 35 bd 0d 3b 40 bd 0d 7e 70 3c
       -0.045263804 -0.04430793 -0.046931315 0.01467849
0001a0 93 25 aa bc 5a d2 1a 3d c0 a1 7e bc af 63 28 3d
       -0.02076987 0.037798263 -0.015541494 0.04111069
0001b0 40 52 63 3c 30 f0 1c bd 67 b2 b2 39 4d 38 fb 3c
       0.01387459 -0.038315 0.00034083726 0.030666495
0001c0 37 46 84 3c 9a c3 26 3b a0 5b 31 bd 67 9e 01 3d
       0.016146762 0.0025446177 -0.04330027 0.031645205
0001d0 f7 dd b1 3c 53 1c d0 3c f3 49 90 3c 80 ff c7 3b
       0.021712286 0.025404131 0.017613387 0.006103456
0001e0 5d 09 15 bd c2 da 14 3d 3d 2f 4c 3d cd ae ca bc
       -0.036385883 0.036341436 0.049849737 -0.024741555
0001f0 58 5e 15 bd 80 23 2d bb f7 8c d9 3c 33 37 dd 3c
       -0.036466926 -0.0026418865 0.026556475 0.02700386
000200 b3 a6 d4 bc 98 f2 11 3d 93 aa c4 bc 13 79 cb 3c
       -0.025958395 0.035631746 -0.024007117 0.024838006
000210 03 ae 3f bd 83 fd ac bc f0 05 fa bc a0 09 17 bd
       -0.04679681 -0.021116978 -0.03052041 -0.036874413
000220 d8 a7 0a 3d e7 0d 2b 3c 9b 37 43 3d 37 7a 8a bc
       0.033851475 0.010440326 0.04766045 -0.01690398
000230 ed 33 f4 3c 8d ca 31 bc f2 e6 34 bd 2d 80 4e 3c
       0.029809916 -0.0108515145 -0.04416556 0.012603802
000240 3f 10 31 bd 20 00 1d bd 58 59 2c bd 80 0d fe bc
       -0.043228384 -0.038330197 -0.042077392 -0.031012297
000250 db dc 34 3d 48 06 01 bd 23 46 9f bc 47 6e 83 bc
       0.044155937 -0.03150013 -0.019442623 -0.016043795
000260 a0 4c cc 3c 2a 95 d3 bc 53 1d 1e 3c 25 c4 01 bd
       0.024938881 -0.025827963 0.009650546 -0.0316812
000270 1a 3f 2e bd cd 0b e6 3a 47 c3 27 bc ba ab 33 bc
       -0.042540647 0.0017551124 -0.010239429 -0.010966236
000280 33 90 94 3b 67 69 ff 3a ad 52 ad bc f7 c3 47 bd
       0.0045337914 0.0019486368 -0.021157587 -0.04877087
000290 f3 e2 4c 3c 47 2a 67 3c 9a a4 0a bb 1d 23 0e 3d
       0.012505281 0.014109201 -0.002115524 0.034701455
0002a0 cd 08 64 3b af 09 2f 3d c7 c5 f9 bc 27 92 10 bd
       0.0034795285 0.042733844 -0.030489815 -0.03529563
0002b0 c3 52 ac 3c 9a 8e b3 3a 33 2d 30 bb 43 b8 8b bc
       0.021035558 0.0013699115 -0.002688241 -0.017055636
0002c0 ca 49 ee 3c cb 0c 4a bd c7 8e 4b 3c ad b6 c3 3c
       0.02908792 -0.049328607 0.0124241775 0.023890818
0002d0 a0 9b 18 3c e3 7c 8d bc 0d 0d 02 3c da 34 a2 3b
       0.009314448 -0.017271465 0.007937682 0.004950148
0002e0 98 b3 3c 3d 93 b1 1b 3c da 3e 60 3c d3 e1 00 3c
       0.04606971 0.009502786 0.01368686 0.007866341
0002f0 f3 f7 0a bd 9a e0 b0 3a 33 41 23 3c d3 51 82 bc
       -0.03392787 0.0013494671 0.009964275 -0.015908157
000300 9a f4 e7 bc 27 75 1b 3d 0a c1 83 bc 1a a6 30 3c
       -0.028314877 0.037953522 -0.01608326 0.010781789
000310 c0 9a df 3b 6b 8b 16 bd 67 6f 85 3a a3 c7 a0 bc
       0.0068238676 -0.036754053 0.0010180295 -0.019626444
000320 7a 5c 1a 3c 27 8e bb bc 8d da 98 bc 1a 41 54 bb
       0.009421462 -0.022894932 -0.0186589 -0.0032387436
000330 d7 ad 91 3c 9a 34 68 3b a3 02 15 3d 6d 2e dc 3c
       0.017783089 0.0035431744 0.036379468 0.026877606
000340 47 4d b4 3c ed 54 21 3d 30 3f b4 bc bd 80 15 bd
       0.022009505 0.039387632 -0.022002786 -0.036499728
000350 47 bc 42 3c cd d0 1a bc cd b8 8d 39 97 3a 83 3c
       0.011885709 -0.009449196 0.00027031303 0.016019149
000360 1d 6e a7 3c 22 fe 18 bd 0d 11 27 bd e3 ea 97 bc
       0.020438248 -0.037351735 -0.040787745 -0.01854462
000370 77 64 c5 bc 4d f8 2c 3d 87 d5 02 bc 92 97 19 bd
       -0.024095757 0.042228986 -0.007985479 -0.037498064
000380 cd b4 79 ba f3 42 2a 3d db 6e 11 3d d8 73 42 3d
       -0.00095255376 0.041567754 0.03550611 0.04747376
000390 00 04 df 3b 00 c5 86 3a 0d 05 84 3b b8 86 3f bd
       0.0068058968 0.0010282099 0.0040289224 -0.046759337
0003a0 e0 28 35 bc 5a a2 ba 3b fd e5 1f 3d 2d dc 05 3d
       -0.011057109 0.0056956233 0.039037693 0.03268068
0003b0 17 9d d4 bc c7 f1 8b 3c a3 21 0a 3d 8d 51 de 3b
       -0.025953813 0.017083062 0.033723485 0.006784624
0003c0 a3 c5 d4 bc 9a ef 41 bb 47 c4 11 3d 47 33 16 bd
       -0.025973147 -0.0029592277 0.035587575 -0.036669996
0003d0 30 5c ab bc a7 fa dd bb cd ed bc 3a e0 cb 4b bc
       -0.020917982 -0.006774265 0.0014414132 -0.012438744
0003e0 5a 0d ac bc 67 6f 09 bc a0 8a 41 bd 7d 7d 09 3d
       -0.02100246 -0.008388377 -0.047251344 0.03356694
0003f0 bf 9c 12 bd b7 5a 87 3c 9d a7 96 3c ba 64 71 bc
       -0.035794016 0.016522748 0.018390471 -0.014733488

fc1.bias f4 [120]
000000 42 b7 29 3d 5a 44 e9 3c b3 3f a3 3c 5d 75 06 3d
       0.041434534 0.028474975 0.019927835 0.03282677
000010 f2 c8 08 3d a7 48 cb 3c 87 bf f5 bc 4d 74 3b bd
       0.03339476 0.024814917 -0.029998554 -0.04576521
000020 73 c1 c9 3c ff e0 2a bd cd 78 28 ba ff 4d 18 3d
       0.024628377 -0.04171848 -0.0006426692 0.037183758
000030 ea 81 0e bd c3 14 ed bc 38 d9 44 bd 90 1f c1 bc
       -0.034791864 -0.028940564 -0.04805872 -0.02357462
000040 a0 9c 0c bc 53 7f 05 bc a0 dc 8a 3c cd 11 9f bc
       -0.008582264 -0.008148032 0.016950905 -0.019417668
000050 5f da 39 3d e0 ae f0 bc 0d 32 66 3c 73 8f 80 3b
       0.04537427 -0.029380262 0.014050019 0.0039233505
000060 83 12 d3 bc 20 be 51 3c 5a 10 66 bc 53 bd 74 bc
       -0.025765663 0.012801677 -0.014041984 -0.014937717
000070 73 0c a5 3b da 70 0c 3c 93 73 ae bc 82 c4 3f 3d
       0.0050368845 0.008571828 -0.021295344 0.046818264
000080 3a 36 15 bd 93 19 2b 3d 52 24 47 3d 93 88 25 bc
       -0.036428668 0.041772436 0.048618622 -0.010103363
000090 e7 af 57 bc 00 e7 bf 3c 53 81 36 bc 47 4a fc bc
       -0.013164497 0.02342558 -0.011139232 -0.030797137
0000a0 e0 39 4b 3d 5a 71 80 bc 27 41 aa 3c 2d 3e c5 3c
       0.04961574 -0.01567905 0.02078302 0.0240775
0000b0 03 42 fc bc 03 f0 f4 bc 67 dd 77 3b a5 0e 44 3d
       -0.030793196 -0.029899603 0.0037821175 0.04786553
0000c0 87 e0 36 bd 07 9b 40 3c 7b ec 29 bd 60 61 30 bc
       -0.04464772 0.011755711 -0.04148529 -0.0107654035
0000d0 db d4 1d bd 33 58 ee 3a c8 d7 28 bd a7 8c c4 bb
       -0.038533073 0.0018184244 -0.04122141 -0.0059982124
0000e0 5d 54 b4 bc 57 4a 2a 3d 9a 6b f6 3c f7 c2 0a bd
       -0.022012884 0.041574802 0.030080605 -0.03387734
0000f0 9a 1b b8 ba 33 55 25 bc 8d ac 31 bc c2 06 1e bd
       -0.0014046312 -0.010091114 -0.010844362 -0.038580664
000100 63 bf 93 3c a0 a3 a2 bc 7a 86 46 bd 87 5d 02 bc
       0.018035596 -0.019853413 -0.04846809 -0.007956869
000110 80 87 0a 3c c0 f3 75 bc f0 f2 aa 3c da 60 f2 bc
       0.008455157 -0.015011728 0.020867795 -0.029587198
000120 e0 49 4c bc 8d d1 e0 bb ad 1f ad bc c0 58 d2 bc
       -0.012468785 -0.006860918 -0.021133268 -0.025677085
000130 4d a8 dd 3c c0 c4 1d bd e7 52 2a bb 9d 70 8e 3c
       0.027057791 -0.038517714 -0.0025989355 0.017387683
000140 0a b7 34 bd 6d 89 23 bd 60 75 cf bc 42 50 35 3d
       -0.044119872 -0.03992598 -0.025324523 0.044265993
000150 2d 8d 90 bc ab e0 2d bd b7 bc fe 3c 63 b3 15 3d
       -0.017645443 -0.04245059 0.031095846 0.03654803
000160 b3 3f 93 3b 27 cc fc bc ba af 17 3c b5 6c 45 bd
       0.0044936775 -0.030859066 0.009258205 -0.048199374
000170 6d cb ff 3c 80 d2 b2 bb c0 64 62 bc e0 35 36 bd
       0.03122493 -0.0054572225 -0.013817966 -0.044484973
000180 30 fd b0 bc 5a cd 8f 3c 5a 67 ce bc 97 fc 4a bd
       -0.021605104 0.017553974 -0.025195766 -0.049557295
000190 c3 03 2c bd 93 30 e1 3c 27 e4 51 3c 63 05 f6 3c
       -0.041995775 0.027488982 0.012810743 0.030031865
0001a0 fd 94 30 bd 33 e7 67 bb c3 f7 a9 3c 3b 04 30 bd
       -0.043110836 -0.0035385608 0.020748025 -0.042972784
0001b0 8d 07 25 bc 22 d4 46 3d 88 56 2b 3d 6f 89 3e bd
       -0.010072601 0.04854215 0.04183057 -0.046517786
0001c0 da ff d9 3c 5d bd 07 bd 1a cc 42 bb e7 03 42 bb
       0.026611257 -0.033139575 -0.0029723705 -0.0029604377
0001d0 1a 2a bc 3b aa 21 ff bc da d9 04 3d 2f 37 09 bd
       0.0057423236 -0.031143982 0.032434322 -0.033499893

fc2.weight f4 [84, 120]
000000 f6 3d 5a bd 97 47 25 bd 23 c8 a9 bd 44 d7 30 3d
       -0.053281747 -0.040351477 -0.08290126 0.043174043
000010 42 af a2 3d 49 be 33 3d e0 25 a3 bc f6 48 e8 3b
       0.07943584 0.043882642 -0.019915521 0.0070887757
000020 a2 67 4c 3d 68 00 59 bd 17 d0 a9 3d a4 73 23 bd
       0.04990352 -0.052978903 0.08291643 -0.039905205
000030 5b 2b 55 3d b8 4d 10 bd 36 95 00 3d 31 ee 14 3d
       0.0520433 -0.03523037 0.0313923 0.03635997
000040 43 b7 03 3a 04 50 00 bd 7e 32 09 3d 8a c5 9e 3d
       0.00050245615 -0.03132631 0.03349542 0.07752521
000050 01 ce af bd ec 41 6d 3d ce e7 4a 3d 29 a0 3d bd
       -0.08584214 0.057924196 0.049537472 -0.04629532
000060 00 2b b7 3d 3c 73 59 bd 19 70 5d 3d f9 f0 1a 3b
       0.089437485 -0.05308841 0.054061983 0.0023642166
000070 c6 3f 73 bd 48 61 d5 bc a4 5e 41 bd 5e c6 a2 ba
       -0.05938699 -0.026047364 -0.047209397 -0.0012418737
000080 8f 14 aa 3d e4 f5 ec 3c 4f 8a 7a 3d 4c d4 79 3d
       0.083047025 0.028925844 0.061167058 0.060993478
000090 ab f2 aa 3a 31 da 5c 3d 3f 7e ab bd 65 56 9f bd
       0.0013042291 0.05391902 -0.08373689 -0.0778015
0000a0 ed 0d ab bd 8b d9 96 3b 03 18 38 3d 71 94 10 3d
       -0.083522655 0.00460357 0.044944774 0.035297815
0000b0 8d c9 6c 3a 6a 13 19 3d 9e 1e 49 3d b1 3f a4 3d
       0.0009032719 0.03737203 0.049101464 0.08019961
0000c0 50 fb 2d 3d af 45 82 bd 50 47 52 3c eb 8c 97 3d
       0.042476 -0.06360947 0.012834385 0.07399925
0000d0 93 d1 97 3d 78 2b 3c 3b 3b 2d a2 3c ef d2 66 3d
       0.0741302 0.0028712433 0.019796958 0.056353506
0000e0 87 de 55 bd d0 4c 2b bc 8d bc 73 37 9f 92 bc bb
       -0.05221417 -0.010455325 1.4527829e-05 -0.0057547833
0000f0 c0 4b 63 bd 1e b0 ad bc 02 f4 b5 3d 30 bc a6 3d
       -0.055492163 -0.021202143 0.088844314 0.08141363
000100 97 b7 8d 3c dd 81 b6 bd 6f 92 fd 3b 58 73 af bd
       0.017299457 -0.08911488 0.0077384035 -0.08566922
000110 3e 33 a4 3c 19 e2 82 bd 35 c5 2a 3b cf a1 70 3c
       0.020043965 -0.06390781 0.0026057486 0.014687016
000120 06 5b 42 bc 31 a9 38 bd f2 42 61 3d 2b 25 2a bd
       -0.011862522 -0.04508323 0.054995485 -0.041539352
000130 c0 04 46 bd 10 3e 37 bc f1 65 9e bd d6 68 51 3d
       -0.048344374 -0.01118423 -0.077342875 0.05112537
000140 82 84 ba 3d 95 ca 27 3d d3 5b 50 bc 33 2b 68 bc
       0.09107305 0.04096468 -0.012717205 -0.014170456
000150 fb f9 1f 3d 4b 6d 42 3d b6 e6 8f 3d 60 3a 05 bd
       0.03905676 0.04746751 0.070264265 -0.032526374
000160 ab 10 a6 3d cc 94 29 3d 1c e9 a8 bd 3b e2 aa 3d
       0.08108648 0.04140167 -0.08247587 0.08343931
000170 bb e4 10 bc 01 64 73 3b 44 36 0c bc 8b 8f a0 3c
       -0.008843596 0.0037138464 -0.00855786 0.019599697
000180 76 a4 67 3b ad 14 96 3d d3 88 85 bb 0f e4 42 3d
       0.003534583 0.07328162 -0.0040751486 0.047580775
000190 f3 f6 d5 3c 30 74 2a 3d f9 45 ed 3b 10 bf 5a bc
       0.026118731 0.04161471 0.0072410074 -0.013351217
0001a0 b8 64 04 bd d1 64 70 bd 54 f7 fd bc 77 01 b5 3c
       -0.032322615 -0.058689896 -0.031001724 0.022095425
0001b0 15 b1 ac 3d 92 df 97 3d 19 2e 21 bd a0 e0 5b 3d
       0.08432213 0.074156895 -0.039350603 0.053681016
0001c0 d3 79 7b 3d 12 bb 2d ba 0d 2c 88 bc 37 3b 35 3d
       0.061395478 -0.0006627302 -0.016622568 0.044245925
0001d0 86 b7 62 bd 3f 82 90 3d f5 1c a6 bd d1 83 0c 3d
       -0.055350803 0.070560925 -0.08110992 0.034305397
0001e0 0e 01 00 3d 4e ee 70 bc c9 21 85 3d d0 ab 3a bd
       0.031251006 -0.014705254 0.06500585 -0.04557401
0001f0 8c ff 91 3d 62 cd 4f bd 98 5a 0a 3d 9a f0 a0 3d
       0.0712882 -0.050732978 0.033777803 0.07858391
000200 f9 47 a9 bd cc 18 31 3d b7 cb 85 3d a1 22 0c 3d
       -0.08265681 0.04323654 0.06532996 0.034212712
000210 6a 55 23 bd e5 d8 64 3d 29 95 02 3d d3 19 ab bd
       -0.03987638 0.05587091 0.03188053 -0.08354535
000220 18 ed 0c 3d 06 a2 96 3d fe b2 94 bd ec ac 11 bc
       0.034405798 0.07355122 -0.072607026 -0.008891325
000230 c3 1e 65 3d 23 98 56 bd be b6 1e 3d e9 56 95 bd
       0.05593754 -0.052391183 0.038748495 -0.072919674
000240 dc bd a6 3d 91 e8 a9 3c 7b 79 49 3d 5f c4 de bc
       0.081416816 0.02074078 0.04918812 -0.027193246
000250 fb b2 92 3d ba af 89 3d 90 57 0c bd ad fe f2 ba
       0.07163044 0.0672297 -0.034263194 -0.0018539034
000260 c3 c6 3d 3d ca 1e 81 3d 75 ac a3 bd 18 a2 ca 3c
       0.046332132 0.06304701 -0.07991878 0.024735495
000270 32 0e 03 bb 19 42 b2 bc bc 97 51 bd 7b d9 9d bd
       -0.0019997475 -0.021760033 -0.051170096 -0.07707497
000280 4d 67 7a 3c 07 a6 b0 3d 28 eb 1b 3d d1 19 0e bc
       0.015283418 0.08625417 0.03806606 -0.008673147
000290 92 f0 99 3c 0f 2e b7 bd 1b de 5c bd 73 af 9f 3d
       0.01879147 -0.08944332 -0.053922754 0.07797136
0002a0 e1 96 19 3d 59 0e 3c 3d 8c 9a b5 bd b5 ba 62 bc
       0.037497405 0.04591212 -0.08867368 -0.01383846
0002b0 92 a9 32 bb d1 1f fb 3c 24 b6 7a 3d a5 84 16 3d
       -0.0027261716 0.03065482 0.06120886 0.036747593
0002c0 4f 48 93 bb 3c 79 4b 3d e2 33 ba 3d bb 5b 6c 3d
       -0.004494704 0.049676165 0.09091927 0.05770467
0002d0 ba 8f b4 bd b1 35 b6 3d 44 fc 0f ba b9 77 9f 3d
       -0.08816476 0.088969596 -0.00054926076 0.07786507
0002e0 ef d3 17 3d 72 f0 52 bd a0 59 9b bd 2d 31 04 3c
       0.03706735 -0.051498838 -0.07585454 0.008068365
0002f0 1c 6c 90 3d 95 4e d6 3c 33 6f 09 3d 77 56 35 bd
       0.0705187 0.026160518 0.033553313 -0.044271912
000300 82 bf 14 3d b6 15 88 bc 8a c6 6c 3c 04 6a 2f 3d
       0.03631545 -0.016611915 0.014451632 0.042825714
000310 eb e3 85 bd e0 37 a1 bd 1f 7c 8e bd 69 15 43 bd
       -0.065376125 -0.078719854 -0.06957268 -0.04762784
000320 ea 24 1e bb ce e9 6b 3c 8f f4 af bd 7d d6 4f 3d
       -0.002413089 0.014399005 -0.08591568 0.05074166
000330 17 73 06 3d 0e e9 73 3d 30 3f bc bb 85 0d a9 bd
       0.032824602 0.05954843 -0.005744837 -0.08254532
000340 2a fe b0 bb 62 e3 aa 3d f6 96 af 3d c4 c1 f2 3c
       -0.0054013925 0.08344151 0.085737154 0.02963341
000350 3c af 6b 3d 55 b6 b0 3d 55 44 74 3d 75 f9 4d bd
       0.057540163 0.08628527 0.05963548 -0.05028673
000360 89 32 68 3d a7 8b 5c bc a2 41 a5 bc 69 a5 7a bd
       0.05668882 -0.01346103 -0.020172898 -0.061192904
000370 e2 93 87 bd 0e f2 21 3d dd 39 b9 3d 03 e6 a0 bc
       -0.06620003 0.039537482 0.0904424 -0.019640928
000380 6f 64 36 3b e5 17 a7 3d 99 55 9c bd 0e f8 4e 3d
       0.002783086 0.081588544 -0.07633514 0.050529532
000390 08 69 35 bc 3f 35 4d 3d 87 ef b8 bd c1 fc 66 bd
       -0.011072405 0.050099608 -0.09030061 -0.05639339
0003a0 d7 70 85 3c d0 ce 86 3c 79 32 80 bd 4e 40 47 ba
       0.016289158 0.016456038 -0.06259627 -0.00076008297
0003b0 c9 40 ad 3d b3 4e ac 3c eb dd b0 bc 25 77 74 3c
       0.084596224 0.02103362 -0.021590194 0.014920984
0003c0 9c 35 74 3d 7f db 6e bd 66 26 b8 3d 6e a1 81 bd
       0.05962144 -0.058314797 0.08991699 -0.063296184
0003d0 bc 8e 32 b7 7a 01 6e 3d c5 ce 2b bd bc 17 9f 3b
       -1.064286e-05 0.058106877 -0.041945238 0.0048551243
0003e0 53 97 4e 3d 03 4b a5 bc bf c1 a0 3d 39 c2 73 3d
       0.050437283 -0.02017737 0.07849454 0.059511397
0003f0 16 fc b3 bc 1b 30 3a 3d 34 13 82 3c ce e0 9c bd
       -0.02197079 0.045456033 0.015878297 -0.076600656

fc2.bias f4 [84]
000000 9b 0c a3 3d a3 78 fb 3c 3e b4 8f 3b d7 6a 18 3c
       0.07961389 0.030697173 0.0043855 0.009302816
000010 99 5a 36 bd da c8 a5 bd d5 77 79 bd 39 58 84 3c
       -0.044519994 -0.0809495 -0.060905296 0.01615535
000020 f2 53 40 bd b3 2a be 3c e8 da 8a bd eb 3e b3 bb
       -0.046955056 0.02321372 -0.06780034 -0.005470147
000030 14 78 58 bd a5 0d 83 3d 58 71 d3 bc 1f 0d e8 3c
       -0.05284889 0.06399087 -0.025810882 0.02832657
000040 31 f5 b4 3d 99 af 36 bd 58 ba 23 3d 1b 72 48 bd
       0.08835829 -0.044601057 0.039972633 -0.048936944
000050 e1 d6 0d 3d 68 96 e1 ba 60 b6 5d 3d d5 66 f9 bc
       0.034628753 -0.0017210962 0.054129004 -0.030444542
000060 0d 40 77 bd 3c 69 df 3c ab ba 98 bd af 54 87 bd
       -0.060363818 0.02727186 -0.07457479 -0.06607949
000070 28 7e 5a bc ba f9 09 bd e2 36 b1 bd 61 86 b0 3d
       -0.013335742 -0.033685423 -0.08653046 0.08619381
000080 3c 4e 15 3d b8 fa 8d bd 77 91 9c 3d 8d ce db 3b
       0.036451563 -0.069325864 0.07644933 0.0067079724
000090 50 c4 cc 3c 0c a0 eb bc 5c 6e b4 bd e6 03 b9 bc
       0.024995953 -0.02876284 -0.08810112 -0.022584867
0000a0 43 66 5a 3d 36 56 ba bd ba 6d 88 bd 65 b8 79 bd
       0.05332018 -0.09098475 -0.06661554 -0.060966868
0000b0 0f d5 60 3b 53 5a 9f bd c0 45 b4 3d 5b d7 6f bd
       0.003430668 -0.077809 0.08802366 -0.05855499
0000c0 ff ab 57 bd 0f 2a 56 3d 12 ec 23 3d 25 ff eb 3c
       -0.052654263 0.052286204 0.040020056 0.028808186
0000d0 04 ec 92 3b ef d5 9f 3c ef 01 9e bd d3 94 aa bd
       0.0044837017 0.019511191 -0.077152126 -0.08329167
0000e0 4f 19 b4 3d cd fc 66 3d 67 24 42 3d 0f 34 90 bd
       0.0879389 0.056393433 0.047397997 -0.070411794
0000f0 4b ca a8 bd 45 6e 4b 3d 46 97 a4 bd 1e c6 4d bd
       -0.08241709 0.049665708 -0.080366656 -0.050237767
000100 41 31 94 bd 90 8a 34 bc 1e 21 9c 3d 58 4f 04 3c
       -0.07235957 -0.011019364 0.07623504 0.008075558
000110 62 84 60 3d 5b 4f aa bb 5e a0 97 3c 7c 63 8b bd
       0.05481375 -0.005197448 0.018509086 -0.068060845
000120 ff 2b 44 bc 1c c3 91 bd 8a d3 aa 3b 8a 43 65 bd
       -0.01197338 -0.07117292 0.0052132057 -0.055972613
000130 b0 e5 61 bc 52 8e 5c bd 75 b5 14 3d b8 d9 b4 bd
       -0.013787672 -0.053846665 0.036305863 -0.08830589
000140 e5 78 1e 3d 73 22 97 bd 8b 58 b9 3c e5 c0 51 bd
       0.038689513 -0.073796175 0.022625228 -0.05120935

fc3.weight f4 [10, 84]
000000 e8 26 c5 bc 14 51 f9 bc 2a 56 ab 3d d5 e8 2c bd
       -0.024066404 -0.030434169 0.08366044 -0.042214233
000010 b8 c7 cc bd fa 91 29 bd 0d 9c c5 3d 28 70 47 bd
       -0.09999031 -0.04139898 0.09648905 -0.048690945
000020 33 e5 36 3d 83 80 98 bd cc cb c6 bd 62 a6 0a bd
       0.044652175 -0.07446387 -0.0970684 -0.03385008
000030 98 69 9c bd 94 cf c9 3c ae 66 34 3d 8a 61 23 bd
       -0.07637328 0.024635114 0.044043235 -0.039887942
000040 ef 84 bc bd 6b 76 34 bc 13 18 93 3d 73 c3 c6 bc
       -0.092050426 -0.011014561 0.07182326 -0.02426312
000050 9f 29 bd bd a7 8f d8 3d 14 bf 21 3d de 1a 99 3d
       -0.09236454 0.105742745 0.039488867 0.07475828
000060 fd bc 79 bd 8d 1e c8 3d 73 9d ad bc 78 5d 0e bd
       -0.06097125 0.09771452 -0.021193242 -0.034757107
000070 74 ee cc 3d 8f 74 5d bd c2 5b 70 3d e1 45 76 3d
       0.10006419 -0.054066237 0.058681257 0.060125235
000080 47 11 5a bd 4a 16 7b 3d 92 ad ad bc b1 c0 cd bd
       -0.053239133 0.061300553 -0.021200929 -0.100465186
000090 8b 2e 96 bd 30 94 4c bd 6f 25 a5 3d 49 bb c0 bc
       -0.07333096 -0.04994601 0.080637805 -0.023526805
0000a0 6d 85 89 bd d6 98 c8 3c e2 f9 27 3d bd a6 6e bd
       -0.06714902 0.02448694 0.04100979 -0.058264483
0000b0 e4 20 db 3c 93 87 09 bd e8 c4 8e 3c 9d 2f 2a 3d
       0.026749082 -0.03357656 0.017427877 0.041549314
0000c0 55 04 88 bd ab 4f 9e bd 0f 3b 9c 3d 58 78 04 3d
       -0.06641451 -0.07730039 0.07628452 0.03234133
0000d0 10 1b dd 3d 3a bc 03 3d e2 bc a7 bd ff e7 06 bd
       0.107961774 0.03216193 -0.081903234 -0.032936092
0000e0 58 01 fa bb 94 3b ea 3c 78 9a d2 3d c9 25 b1 3d
       -0.0076295547 0.028592862 0.10283369 0.08649785
0000f0 9a d6 5a bd d0 7d 2f 3d b1 ed 81 3d 7e 76 be 3d
       -0.053427316 0.042844594 0.06344164 0.09299944
000100 d4 81 a1 bc 5b b8 18 bc e7 c7 5e bb 54 3a 75 3d
       -0.019715227 -0.0093212975 -0.0033993663 0.05987008
000110 85 08 88 ba c8 66 a8 bd 5d 9e 9f 3d 3d 0f 2d bd
       -0.0010378516 -0.08222729 0.07793877 -0.04225086
000120 86 a2 c2 3d 5e 31 75 3d 30 eb b2 bd 37 94 b1 bc
       0.09503655 0.059861533 -0.08736265 -0.02167712
000130 d7 ca 7b bd 00 a6 b3 3d f9 ad 79 bd 93 bb f7 bc
       -0.06147274 0.08771896 -0.06095693 -0.03024081
000140 1c bb 2e bd 6f b3 43 bd f4 5d 86 3d 5c 2c a3 3c
       -0.04265891 -0.047778543 0.06560889 0.019918613
000150 7a 67 67 bd 79 6e a5 3c f3 75 a7 bd 21 2f d7 3d
       -0.056495167 0.020194279 -0.08176794 0.10507036
000160 a4 81 99 bd b0 47 55 bd 5a d9 0d 3d 43 b5 1b bc
       -0.0749543 -0.05207032 0.03463111 -0.009503665
000170 ed e0 92 bd 1e 19 4e 3d 94 64 92 bc c4 84 8b bd
       -0.071718074 0.050316922 -0.017870225 -0.068124324
000180 8a ff cf bd 79 24 95 bd e1 5d 28 3d f0 db d7 3d
       -0.10156162 -0.07282347 0.041105155 0.105399966
000190 a7 e0 8c 3d af d2 9e 3d 29 fc b2 bd 48 b9 82 3d
       0.068787865 0.077550285 -0.08739502 0.06382996
0001a0 6b d4 9a 3c 39 31 c1 bd 1c 6c 4a bd 4d 30 80 bd
       0.018900117 -0.094332166 -0.049419507 -0.06259213
0001b0 a9 6f 9f bd 3c b5 77 bd 4b 11 ac 3d 5e 0b dc bd
       -0.07784969 -0.060475573 0.08401736 -0.107443556
0001c0 36 5b c9 bc e5 17 8c 3c 54 fc 81 3d e7 7b 64 3d
       -0.024579626 0.017101238 0.06346956 0.055782225
0001d0 ae 2c 9b 3d af 7d 50 3d e3 1a 9f bc 4b 6d 6d 3d
       0.07576881 0.05090111 -0.019422 0.057965558
0001e0 5e 96 29 bd f6 24 fc bc 3d 7f ab bd db 7c 9d 3d
       -0.041403167 -0.030779343 -0.08373878 0.0768983
0001f0 91 2d de bc 7b bf b9 3d 18 cc a4 bd f2 00 a9 3c
       -0.027121337 0.09069725 -0.0804674 0.020630334
000200 d0 a6 22 3c 9c 19 c3 3d 11 88 c2 3d 5e 2c 48 bd
       0.0099274665 0.09526369 0.09498609 -0.048870437
000210 3f aa 08 bd 8a fd 49 bd a5 e1 92 bc 84 0b 50 3c
       -0.033365484 -0.04931406 -0.017929861 0.012698058
000220 84 03 be bd af e4 e5 3c 14 24 dd 3d 93 78 1a bc
       -0.09278014 0.028063146 0.10797897 -0.009428161
000230 bf bf 3b bd b4 c7 cd 3d 69 2d 3d bd fa 88 ce bd
       -0.04583716 0.10047856 -0.046185885 -0.1008472
000240 44 c1 c0 bd 36 d9 2e bd d0 ae 24 bd 30 c2 82 bd
       -0.094118625 -0.042687617 -0.040205777 -0.063846946
000250 0a 0f 80 3d 8c d9 df 3b bb 7b 91 bd 54 2a 41 3d
       0.062528685 0.0068313535 -0.07103678 0.047159508
000260 44 c8 5b 3d 7c 2c db 3c 02 91 93 3a f1 5a 9d 3d
       0.053657785 0.02675461 0.0011258426 0.07683361
000270 bd 35 1c bd 5c 5e a3 bc 54 43 4a 3d 9c f2 89 3c
       -0.038137186 -0.019942455 0.049380615 0.016839318
000280 e0 e4 cd bd 01 ff 32 bd 50 e7 93 3c 42 fb a3 bd
       -0.1005342 -0.043700222 0.018054634 -0.08006908
000290 fe 40 0a 3d 9b 49 45 3c 4c 5f e5 3c fd 9e 43 bd
       0.033753388 0.012041475 0.027999543 -0.047759045
0002a0 97 63 0b 3c ab 2d a6 3d 8b b7 53 bc eb e3 6f 3d
       0.008507631 0.08114179 -0.012922178 0.05856697
0002b0 2a ec 74 bc 33 52 0c 3d aa 8f 94 bd f4 19 56 bd
       -0.014948884 0.03425808 -0.07253964 -0.052270845
0002c0 7f 09 d8 bd 9c 57 96 3d a9 19 c6 bd e1 cd 0e bc
       -0.10548686 0.07340929 -0.09672863 -0.008716078
0002d0 75 25 9b bc 81 ce cc 3d 35 56 70 bc 47 25 d5 3d
       -0.01893876 0.10000325 -0.014668991 0.10407501
0002e0 0a 18 91 bc 50 dc ca 3c da 21 7c bc 0e 19 55 3d
       -0.017711658 0.024763256 -0.01538893 0.052025847
0002f0 28 25 9d bd 71 2d ab 3d ac 06 36 3d b5 7a c8 3d
       -0.076731026 0.08358277 0.044439957 0.097890295
000300 83 77 b6 3d cf 42 7a bb 22 30 b4 3d ee 1d 80 bb
       0.08909514 -0.0038186794 0.08798243 -0.003909818
000310 98 d8 a2 3d a5 49 bc 3d 3f e1 05 bd 47 3c 38 3d
       0.07951468 0.09193734 -0.032685515 0.04497936
000320 5e 1f 1d 3d 71 4f be 3d f6 eb e7 bb 01 05 aa bc
       0.038359992 0.09292496 -0.0070776893 -0.02075434
000330 7e 29 73 bd 96 e6 e8 3b 8c fe bb 3d a3 77 dc bd
       -0.059365742 0.007107566 0.0917941 -0.107650064
000340 d2 90 de 3d ce 38 32 bd 29 43 6e 3d 76 a0 77 bc
       0.10867466 -0.043511204 0.058169518 -0.01511394
000350 e5 34 f2 3c d1 e4 50 3d da 1c 2c bd 2d e9 c5 3b
       0.029566238 0.050999466 -0.042019702 0.0060397596
000360 d9 7b 89 bd 91 bc c2 bd 98 9d 37 3d e5 01 5f 3d
       -0.06713075 -0.095086224 0.044828027 0.054445166
000370 26 8a 8f b9 8e c6 c7 bd 97 a4 19 bd 24 f3 76 3d
       -0.00027378014 -0.09754668 -0.03751048 0.06029047
000380 6f cf 81 3d f4 b0 9b bb 61 20 7c bd 6b e1 5a 3d
       0.06338393 -0.004751319 -0.061554316 0.05343763
000390 d9 a2 bd bd 27 a6 be bc eb a5 9d 3d eb ba 98 bd
       -0.09259576 -0.023272587 0.07697662 -0.07457527
0003a0 88 a9 ab bd ae 03 0c 3d 61 14 bf bc 35 9d c6 3d
       -0.08381945 0.034183197 -0.023325147 0.096979536
0003b0 c9 e3 35 bd 45 15 9f bc ea de 35 3c 8e eb 36 3d
       -0.044406686 -0.019419322 0.01110051 0.044658236
0003c0 dc 11 c8 bd 4b 09 95 3d 59 ca 3e 3c 67 9d f9 3b
       -0.097690314 0.07277163 0.011644923 0.007617641
0003d0 af 81 7e bd e6 1d a2 bd 57 69 64 3d c7 cb c3 bb
       -0.062135395 -0.07915859 0.055764522 -0.00597522
0003e0 9a 7c c4 3d fa 72 6e bd ec d6 a8 bd 8b ca 2b bb
       0.09594078 -0.05821512 -0.08244118 -0.0026213254
0003f0 22 24 ad bd ee 8f a1 bd 92 40 54 3d a0 ac a1 3d
       -0.084541574 -0.078887805 0.05181939 0.07894254

fc3.bias f4 [10]
000000 ac cb 69 bd 80 13 41 3d fa 3d 3a 3d d9 32 8c bd
       -0.057079002 0.047137737 0.04546926 -0.06845636
000010 6d 27 99 3d 49 77 14 bd 03 07 94 3d fa 96 8e bd
       0.07478223 -0.03624657 0.072279 -0.0696239
000020 ad bc ac bd 8e e6 e9 bb
       -0.084344245 -0.00713808
