icv/W06_for_students/cifar_net_100e.pth (torch, 259226 bytes, 10 tensors)

conv1.weight f4 [10, 3, 5, 5]
00000000: 4d4f 78bd affb dbbd e1f0 673d 7941 c2bd
00000010: e11a d03b 7f37 80bd 8e58 f33c dcd9 b53c
00000020: 8aeb bdbd ac84 433d de2c e33c 5f5e 813d
00000030: 6fa9 ad3d 68e5 033c 58ae c83d b581 64bd
00000040: 6a23 673c 60f2 a83c 3a93 ba3d a7fc a83c
00000050: 4931 93bd 0110 adbd 4f19 2d3d c619 e5bd
00000060: 93b4 d33d 6baa a3bd 9abe c13d 5cfe bd3d
00000070: 2465 c1bc efe5 bcbb 29cc 883c ab68 3fbd
00000080: ee12 0e3c 0cbc b23b d2d9 e3bd b9b2 c8bd
00000090: 1de9 89bc 48f8 193d f8e4 6d3d 69f7 db3d
000000a0: 8872 613c 0873 ae3d a48f 7bbd 6cc0 a0bd
000000b0: 6c7c abbd 57b8 983c cb1a 32bc 9e96 6a3d
000000c0: e430 8bbd 2651 973d 7ca6 a8bd 706d ca3d
000000d0: 52f3 80bd 039f 92bd 5d36 94bc 05cd 79bd
000000e0: 1f3a 48bd aa24 b7bd c3b5 703d ce15 da3d
000000f0: 74a7 87bd ad15 e63d 7f13 623c c488 debb
00000100: c162 16bd 8407 81bd 6262 c63d 7b5d 133d
00000110: 573a d0bd 7be8 a3bd ab21 933d 47d9 6d3d
00000120: 4d2b e33d ecc0 79bc ef6f 823d 78a5 9fba
00000130: 471d a03d 1395 c9bd 157a e5bb a2d4 49bc
00000140: 05ef dfbd ff7a 823d e554 8d3d b498 84bd
00000150: 7b2b b23c 68ed 6abd 5a34 ea3d be1b 3dbc
00000160: 0412 e5bc 2a01 9f3d 0c74 51bd 331e 8f3d
00000170: 5ecc e53d 6de8 11bd 6ac4 6abd 2aca bc3c
00000180: dcbc d63d 202b b43c 511b e23d b795 45bc
00000190: 33ac 943d a183 1d3d 855b b03d 26b0 20bc
000001a0: a51c bbbd c4c1 b13c 505f 8fbb bc72 2abd
000001b0: 9d2e c3bd c344 fabc 874c f03c bb35 9abd
000001c0: edf0 b7bd e096 70bd 011b b93d 217d 69bd
000001d0: 06ac a9bb 9119 c13c 8122 aabd 7b21 7b3d
000001e0: 93d1 abbd d7a5 863d 12aa 49bd 5256 8cbd
000001f0: 8365 e0bd c5fe 9bbd 3b3f 17bd 1b78 8ebd
00000200: 06cf 823d 2241 54bd 3c46 96bb 3a07 aebd
00000210: 7964 bbbd ea63 46bd 5d98 0b3b df37 7a3d
00000220: fbfc 33bd ad9e 783d de29 c4bc 0587 a73c
00000230: 92d9 8fbd f996 b5bb a53c b83d c754 403d
00000240: 7ed5 c13d 1d7e d5bd 63a9 e6bd 8dce 7d3d
00000250: 59db 023d bff0 cd3d 3ee2 13bd f092 ef3c
00000260: 581b 4a3d 39f8 553c b9cc 21bb f8b9 41bd
00000270: 2793 8b3d ea1d cabd 5f63 443c 5780 d3bd
00000280: ba49 5cbb a591 b8bd 61d0 f53c 195b b93d
00000290: fb48 37bd ebb5 f1bc 03f5 163d 517e 003d
000002a0: cf07 d7ba d345 c0bd 803d de3d 595f 2aba
000002b0: 5839 c0bd 7e2e 063c 7ed0 9cbc 1915 263d
000002c0: 6253 9bbc 3986 df3c 59b0 e73b e938 83bd
000002d0: dbeb a4bd dfe9 38bd eba2 bfbd 77a0 abbd
000002e0: 22e1 9fbd 4be3 8f3c fa7c a4bd d8a2 24bd
000002f0: 5e18 993d da59 c23d 5a0e aa3d f61b c13b
00000300: 9d54 b8bd 33ba 8abc 4a13 463b 9946 603d
00000310: 5bb7 abbd 5a7c 6dbd 5696 debd 252b 42bc
00000320: 62cd 85bd fc72 9ebc cef4 8ebd 3a0a a43d
00000330: 8650 573d f215 a53d d7d4 073d ff15 aabc
00000340: 0a9e 193c 65ac a0bd ada2 36bd f1bd 363c
00000350: 85d1 8cbc 0743 aabd d717 21bc 4cbe 88bd
00000360: 688a 86bd fae3 a6bc f084 f9bc 5f57 d53c
00000370: 6d67 cc3d 0c62 94bd 3d0d 6e3d fab2 b7bd
00000380: d11a ebbd 810a 033d b328 21bc 0e2a ddbc
00000390: 145e ac3d 8063 b3bd 4b32 b43d d4f7 c7bc
000003a0: 1879 c7bd b33d 9cbc 1c92 bf3d 73c9 943d
000003b0: 50ff 49bd 08d8 babd e522 a9bd 18fd 1b3d
000003c0: 4170 23bd 29b1 863d 6549 85bd 3a37 243d
000003d0: dd4a 9e3d 5a01 833b 85ce e53d 34b1 9b3c
000003e0: 5747 d6bd c159 9cbd c28c dcbd fe17 b03d
000003f0: b334 6f3d 1e8c c9bd 3d9b 143d a91c 8b3d
-0.060622502 -0.10741364 0.056626204 -0.09485144 0.0063508605 -0.06260585 0.029705312 0.02219861
-0.09273441 0.047733948 0.027731355 0.06316828 0.084795825 0.0080503 0.097988784 -0.05578776
0.014107564 0.020623386 0.091101125 0.020628287 -0.07187135 -0.08450318 0.042260464 -0.111865565
0.10337176 -0.07991489 0.094601825 0.09277031 -0.023607798 -0.005764715 0.016698914 -0.04673068
0.008671505 0.005454546 -0.1112553 -0.09799714 -0.01683479 0.037590295 0.05807969 0.10740549
0.0137602165 0.08518034 -0.061416283 -0.078492016 -0.08373341 0.018642588 -0.010870646 0.057272546
-0.067964345 0.07388525 -0.082348794 0.09884155 -0.0629641 -0.07159235 -0.018092329 -0.060986537
-0.048883554 -0.0894254 0.05876709 0.1064869 -0.06623736 0.11234603 0.013798594 -0.006791206
-0.036715273 -0.063002616 0.09686734 0.03597782 -0.101673774 -0.080033265 0.07184156 0.05806854
0.11092243 -0.01524375 0.06369006 -0.0012180051 0.07818084 -0.09842887 -0.0070030787 -0.012318762
-0.10934261 0.06371116 0.06900958 -0.06474438 0.021749249 -0.057355314 0.114357665 -0.011542259
-0.027962692 0.07763894 -0.05113606 0.06988182 0.112206206 -0.03562205 -0.05731622 0.023045618
0.10485241 0.02199322 0.110403664 -0.012059621 0.07259407 0.03845561 0.08611206 -0.009807622
-0.09136323 0.02169884 -0.004375376 -0.041613325 -0.09530375 -0.030550366 0.029333366 -0.075297795
-0.089815 -0.058737636 0.09038354 -0.057004098 -0.0051779775 0.023571761 -0.08307362 0.061311226
-0.083895825 0.065746 -0.049234457 -0.06852402 -0.10956862 -0.07616953 -0.036925536 -0.06956502
0.06387143 -0.051819928 -0.0045860093 -0.08497472 -0.09150023 -0.04843513 0.0021300532 0.06108844
-0.043942433 0.0606982 -0.023945745 0.020450125 -0.0702392 -0.005541679 0.08995942 0.04695585
0.094645485 -0.10424445 -0.11262777 0.06196456 0.031947467 0.10055684 -0.036104433 0.02924487
0.049342483 0.013059669 -0.0024688675 -0.047296494 0.068151765 -0.09868987 0.011986583 -0.10327213
-0.003361328 -0.090121545 0.03000659 0.090505786 -0.044747334 -0.02950569 0.036854755 0.031370465
-0.0016405525 -0.09388318 0.10851574 -0.0006499193 -0.093859375 0.008189796 -0.019142386 0.040547464
-0.018960658 0.027285682 0.007070583 -0.06407339 -0.08052798 -0.04514491 -0.09357246 -0.083802156
-0.078066126 0.017564436 -0.0803165 -0.040194362 0.07475351 0.09489794 0.083035186 0.005893226
-0.09000514 -0.01693449 0.00302239 0.054754827 -0.08384582 -0.05797992 -0.10868518 -0.011851107
-0.06533314 -0.019341938 -0.069802865 0.08009763 0.052567028 0.08060826 0.033161964 -0.020762442
0.009376058 -0.07845382 -0.044588733 0.011153684 -0.01718975 -0.08313566 -0.009832344 -0.06676921
-0.06569368 -0.02037238 -0.030458897 0.026042638 0.099806644 -0.072452635 0.058118094 -0.08969684
-0.11479724 0.03199244 -0.009836364 -0.026997592 0.084163815 -0.087592125 0.08798655 -0.024410166
-0.09739894 -0.01907239 0.0935404 0.07264986 -0.04931575 -0.09123236 -0.08258609 0.038083166
-0.039901976 0.06576759 -0.065081395 0.04009173 0.07729123 0.003997964 0.11221031 0.019005395
-0.10462826 -0.07634307 -0.10769035 0.08598326 0.058399867 -0.09841178 0.03628086 0.06792576

conv1.bias f4 [10]
00000000: c44f 85bd fd6f b9bc 4907 53bd 5483 c7bd
00000010: 0f4b 85bd 3860 053d 0e80 c8bb aece adbd
00000020: 2f27 7a3d 08f9 55bc
-0.06509355 -0.022636408 -0.05152062 -0.09741846 -0.06508457 0.032562464 -0.006118781 -0.08486687
0.061072525 -0.013059862

conv2.weight f4 [16, 10, 5, 5]
00000000: 771a a4bc bca8 f7bd d789 bfbd 32c6 c6bd
00000010: b0ef 8bbb b46d 583d 889b 663b 6063 d5bc
00000020: ac27 dcbd 36f6 0bbe 53c0 f63c c079 cfbc
00000030: f188 85bd 142c 47bd c8bb d13d f9db 303d
00000040: e353 503c 58f6 163e d58a 0c3d 3afd 153e
00000050: b7c6 053d 3161 4a3d 5218 753d 8a9c 0e3d
00000060: 0b9e fa3c 8485 413d d2a3 133e 242e 953d
00000070: 75e3 a23d 33d8 9e3d be99 293d c371 63b9
00000080: 24e1 bebd 21ac 9bbd ae2f 74bd e4eb 51bd
00000090: 6fbb 86bc 216b 043e 8723 b03d d86c 0e3d
000000a0: d38e c5bd 7385 3dbb 596b a8bd c620 82bd
000000b0: 5a70 9cbc 840e 96bd efdb 27bd f219 92bc
000000c0: 7dc3 573b d668 3ebd 5193 c3bd 7c74 d4bd
000000d0: 83aa bbbd 09da 25bd dfb7 4abd 90bc 0fbe
000000e0: 090d 1dbe f2c7 65bd d3d6 40bd fdae 85bd
000000f0: daa8 06bd 2395 7d3d 83bc c3bd c1c1 04be
00000100: 864f 5abc 6487 363e 715d 4b3e c9f5 2c3e
00000110: a50c 333d 11ac 583d abe4 dd3c f637 ec3d
00000120: 0704 d33d 10d5 973d f8fb 863d 87a9 f13c
00000130: 73c0 de3d 9f56 d53d 355e bb3d 1955 a03c
00000140: 8eb5 a13b 3eb0 83bd ca92 80bd 2b75 b1bc
00000150: 65c5 7bbd 7b21 b73c 1bf2 413d 6017 dc3c
00000160: 3bdd 66bd 260e 813b bedc 2fbd 503d 11bd
00000170: 094e cfbd 478e d9bc 13de fe3c 7d21 65bb
00000180: f3b3 25bd dc41 723c 72c2 2c3d c6b2 3bbd
00000190: 6140 96bd 8193 27be 5011 d9bd 53f7 5e3c
000001a0: a787 cb3c 7947 e43b 56a4 bebd ce15 eabc
000001b0: 2ea6 9fba 9421 6c3d c300 b03d 0216 f83d
000001c0: 76ad 2b3c abfd b3bd d124 efbc b3ab 6bba
000001d0: de05 af3d c736 083e 9482 da3d 9a6b bc3d
000001e0: 2ba8 543c 45c8 d039 808f 86bd e706 8bbd
000001f0: ad0d c7bd 88f1 bd3c 4ab5 823d 5971 393d
00000200: 8659 6fbd 3920 ec3c ac03 203e 8e2a 273d
00000210: cff2 2d3e 198f 263e 9ef9 b63c 5901 e039
00000220: 3844 1fbc 2129 8ebd a923 cf3d 339b b03d
00000230: 8685 b3bd 7e9e b7bd 002f ddbd f8b7 babd
00000240: 159b 4d3c 4284 6cbd 22f0 4cbd c942 91bd
00000250: cd5d 0ebe 8368 1dbe 4075 60bd 401b 4fbe
00000260: 8024 02be aeff 13be e99c cbbd 0e7d 7f3d
00000270: c5f6 64bd 9ac4 a9bd 4390 dfbc 9f5e b73d
00000280: 1a59 fa3d eae8 d53d f42d 603d 1b42 3d3e
00000290: 089d b53d 0b91 6e3d 20df c83d d11c aabc
000002a0: adcd cabc 5912 a8bd c693 863b 63c2 413d
000002b0: 0780 233d 7976 9e3c 6055 073c ef09 f9bd
000002c0: a309 2fbe c697 16bd 6e2e e6bd c5a9 f0bd
000002d0: 64e5 20bd c125 38be 1e71 b0bd 9b9d 993c
000002e0: ab55 973d cb3c b63d 0bf4 303d 69ce b33b
000002f0: 3014 72bd fd8a 353d d447 e63d 512c a43d
00000300: 2c9c 3f3d 4fab 673d c898 d3bc 82f2 1c3d
00000310: b15f 313d 1ee7 383d 0db3 a1bc 430e 373d
00000320: e211 c5bc abcb a83c 4456 51bd 1885 8bbd
00000330: 81cf b0bd 9c12 9c3c da0c 43bd 42e7 653c
00000340: 788d 78ba d383 d83d a259 3e3d d854 4d3d
00000350: eb07 b93d 2765 8d3d 1c5c b43c e4a2 97b9
00000360: e9f3 e3bd 1905 1abd 08d0 323c c296 82bd
00000370: 8453 7fbd c7ba 3fbc 23fc e4bd 807e 8fbd
00000380: cd3f a4bd d111 ad3d a50c 0c3c 8303 0cbc
00000390: c8da 86bd d45e abbb 1b6c 973d d37c fd3d
000003a0: 738d dc3d 2646 10bc 4a89 d8bb 54be 04be
000003b0: e5f0 14be 1eb0 febc 65bc afbd 5363 93bd
000003c0: 4a86 55bd 976a e5bc 5253 8abd 37c3 863d
000003d0: 1670 7b3d f116 05bd 0666 b53c be70 223d
000003e0: d53c 143c ad28 40bc 7032 393e 8ad9 253d
000003f0: 0f46 cbbd 574a 06be 92c2 a9bd 7abc 503e
-0.02003215 -0.120927304 -0.09352463 -0.097057715 -0.0042705163 0.052838996 0.0035187919 -0.026048362
-0.10749754 -0.13668141 0.030121004 -0.02532661 -0.0652026 -0.04862602 0.102408946 0.043178532
0.012715313 0.1474241 0.034312088 0.1464738 0.032660212 0.049409095 0.059837647 0.034817256
0.030592939 0.04724647 0.14417961 0.07284191 0.0795354 0.077560805 0.041406386 -0.00021690787
-0.09320286 -0.0760119 -0.059615783 -0.051250353 -0.016446797 0.12931491 0.08600526 0.03477177
-0.09646382 -0.0028918653 -0.082236 -0.06353907 -0.019096542 -0.073269874 -0.04098123 -0.017834637
0.0032922917 -0.046486698 -0.09549583 -0.1037378 -0.09163382 -0.040491138 -0.04949176 -0.14036775
-0.15337004 -0.056098886 -0.047079872 -0.06527517 -0.032875873 0.061909806 -0.0955744 -0.12964536
-0.013324624 0.17825085 0.19859864 0.16890635 0.04371323 0.05289847 0.027086576 0.11534111
0.103035025 0.07413685 0.06591028 0.029499782 0.108765505 0.10416912 0.09148828 0.019571828
0.004934973 -0.064301 -0.06277998 -0.021662315 -0.061467547 0.022354832 0.04735003 0.026866615
-0.056363326 0.003938454 -0.042935126 -0.035458863 -0.10122306 -0.026557101 0.031111753 -0.0034962588
-0.040454816 0.01478621 0.042177625 -0.04582479 -0.07336498 -0.16364862 -0.10599005 0.013608771
0.024844958 0.006966528 -0.09308688 -0.02857485 -0.0012180263 0.05764921 0.08593895 0.12113573
0.010478368 -0.08788618 -0.02919236 -0.0008990124 0.08546041 0.13302146 0.10669437 0.09200211
0.0129795475 0.00039822064 -0.06570339 -0.06788426 -0.09719405 0.02318646 0.063822344 0.045274112
-0.058434986 0.028823959 0.156264 0.040812068 0.16987155 0.16265525 0.022335824 0.00042725613
-0.009720854 -0.069414385 0.101142235 0.08623352 -0.08765702 -0.08965777 -0.1079998 -0.091171205
0.0125491815 -0.05774332 -0.050033696 -0.070928164 -0.1390297 -0.153719 -0.05479932 -0.20225239
-0.12709236 -0.14453003 -0.099420376 0.06237512 -0.0558994 -0.08289452 -0.027290469 0.089535944
0.12224026 0.104448155 0.054731324 0.18482248 0.08867842 0.058243793 0.09808183 -0.020765694
-0.024756277 -0.082066245 0.0041069714 0.047304522 0.03991702 0.019343602 0.008260101 -0.12160098
-0.1709352 -0.036765836 -0.112393245 -0.11751131 -0.039281264 -0.17983152 -0.086153254 0.01875191
0.07389387 0.08898314 0.043201488 0.0054872525 -0.059101284 0.044322003 0.11244169 0.08016265
0.046779796 0.056559857 -0.025829688 0.03831721 0.04330415 0.045142286 -0.019738698 0.044691335
-0.024056379 0.020604929 -0.05110766 -0.06812495 -0.08633328 0.019051842 -0.047619678 0.014032187
-0.00094815297 0.105720185 0.0464722 0.05012974 0.09034713 0.06904059 0.022016577 -0.00028922327
-0.111305065 -0.037602518 0.010913856 -0.06376411 -0.062335506 -0.011702246 -0.11180904 -0.0700655
-0.080199815 0.08450664 0.008547937 -0.008545759 -0.06584698 -0.0052298103 0.07393666 0.12377324
0.10769167 -0.008805787 -0.006608163 -0.1296323 -0.14545019 -0.031089839 -0.08580855 -0.07196679
-0.05213002 -0.028004928 -0.06754173 0.06580203 0.06138619 -0.03249258 0.022143375 0.0396583
0.009047707 -0.011728448 0.18085647 0.040490665 -0.09925472 -0.13114296 -0.082890645 0.20384398

conv2.bias f4 [16]
00000000: c62c 75bd 52e3 ecbc 162e 843d ea85 d73c
00000010: 41f9 493c e0ed 2fbe c56d 88bc 3424 eebc
00000020: 3784 a8bc 8a9b 9dbd 5093 e1bd 1dde 23bd
00000030: 7c93 55bd 9f45 9fbc 74c3 3cbd 6488 18be
-0.059857152 -0.028916989 0.06454103 0.026308972 0.012327493 -0.17180586 -0.016653905 -0.029069997
-0.020570857 -0.07695682 -0.11014426 -0.040006746 -0.052142605 -0.019442378 -0.046084836 -0.14895779

fc1.weight f4 [120, 400]
00000000: ed1f 2abd a2dc b8bb 75ef 20bd a5b4 3d3d
00000010: cc6f fa3b 7b5d e4bb 3d76 d0bc b992 033b
00000020: 0476 0a3d 0e23 5f3b c715 7a3d 87c5 2ebb
00000030: c65c 03bd 95ea d03b a758 95ba 5e80 443d
00000040: 9953 09bd 3cbc e8bc 762c 30bc cc1f 683c
00000050: d383 573d f52c 3c3d dd14 453d 2bdd 863c
00000060: 6569 fa3b 91d9 13bc 077d 21bd 3c73 18bd
00000070: c094 4dbd fe3b febc 99d0 cebc a1df 003d
00000080: 9016 21bd 4c5a a83b 0894 a3bb 93bc 46bd
00000090: cbf1 a53c 941d 1dbd 9243 863c 8772 a13c
000000a0: 287c 2cbd 3571 b03c ec48 da3b 0cb6 a53b
000000b0: 7b2c 32bd eb7f 0bbc d908 de3c ada9 02bd
000000c0: 2413 47bc edcb ccbc 2111 b6bc 846d d9bc
000000d0: 9d03 ff3c b5f8 3dbd de7c 6a3c 8d42 daba
000000e0: b98f 8f3c ffa6 e03c 290d f7bc 8d81 0c3d
000000f0: 682e 5b3d 3c3f a7bc fce7 21bd 0572 d93b
00000100: fd98 14bd e7c7 453d 7d52 9abc 3522 613c
00000110: 7fcd 023d 649d 9e3d e13e 1d3d 7753 cb3c
00000120: acb2 273d 660c 8c3d f5c7 bc3d 3cc3 a03c
00000130: 6b3d 0f3d 3d09 2e3d 8f50 0bbd b167 46bd
00000140: f2be 2f3d 486e c73c d73a 3c3d 4ae0 213d
00000150: 2319 0f3d 2d6d 0fbc c311 2ebd 84e9 3cbd
00000160: 7dac b33c 1d85 33bd 3300 00bc 34be babb
00000170: 5c55 2fbb 0dba 6cbc 6d5f 563c fb29 b03c
00000180: 107a 16bd 9750 35bd 74bd 083d 8713 fe3c
00000190: 57b9 ee3c 335d 5cbd b949 743a 568c dfbb
000001a0: 7b5e 4fbd ade1 84bd 5977 2abd 005f c93c
000001b0: 57d9 eabb 551e eb3c b9a7 1ebd f2a2 19bd
000001c0: af9d 5dbd 133a ddbc c3a9 8ebd e905 0c3b
000001d0: 1921 c43c bb1e 8f3b 2ea4 b9bc 6c76 6bbc
000001e0: d96f 9e3b 3e71 d0ba e576 7d3c 33de a4bc
000001f0: 5503 ed3c e24a 25bd e381 a23c 5e29 06bd
00000200: 0732 01bd aec1 2a3b 7f34 56bd b20b 1fbc
00000210: 49db f43c feb2 bbbb 0564 703d 607a 27bd
00000220: 6e36 9a3c 4318 86bd 4d29 e9bb c039 16bd
00000230: 2dc7 3c3d 6de5 ca3c f34c 773c 3aba 2b3d
00000240: bba7 023d a33c ad3d ef18 c5bb 53dc dd3c
00000250: 9d91 4c3d 31d7 723d c7e0 47bd b739 4ebd
00000260: b84b d7bb 078e 223d ef07 1bbd 8042 8fbc
00000270: b992 26bd b4f6 d1bc 14ff 4abd 4796 3dbd
00000280: 61d3 35bd 996b 32bd 2960 bd3c ad03 b9bb
00000290: efdd 11bd b05c 4f3c bf51 2cbd 98a0 503c
000002a0: ce07 22bb 4aa7 03bd ac37 d53c bb85 163c
000002b0: a2e4 1b3d 687f 02bd 4a48 823d 3f73 933d
000002c0: 3104 c33c c98d 593c a3d0 9a3b a40e 9b3d
000002d0: 8efd c9bc a747 50bd 7777 343b 473f a73c
000002e0: 1aa2 2fbc 6889 733d b454 b83c cafa 3cbd
000002f0: 0ea5 ccbb bc64 043b 5f30 853d eff9 693c
00000300: 4efd 953c 3821 52bc 6c67 8a3d d3f0 b73c
00000310: 3516 403d 09ec d9bb ca2f 373c b137 113e
00000320: 5e99 1f3d 037f bfbc 805d 973c e92c 933c
00000330: d964 323d ce12 833c f266 9e3a 4434 06bd
00000340: fe21 64bc 98c7 16bc 40b3 1dbc ed80 7b3b
00000350: df43 b9bc 1635 413d 5ab9 50bc 5bb8 783c
00000360: 0892 863c 3f94 04bd 1eda 0a3d 35fa 90bc
00000370: ce44 fc3c 83a3 bdbc 7c01 10bd e84b 113c
00000380: 1818 ac3c 86c9 353d a36c ad3c 3b53 d23c
00000390: 8036 f5bc 6218 0f3d f69a 8bbc 136e edbc
000003a0: 5439 5bbc 69e5 543d 8c25 ac3b cfa2 803d
000003b0: 988a 03bd 46ea 23bc bb18 463d b483 413d
000003c0: a5de 023d 95ba dc3c 8092 0e3c 1a6a b4bc
000003d0: 5a93 f6bc 9068 263d 72de b3bc 4216 1b3d
000003e0: 0bce 243d 5196 d13c a492 433d 62ab c23c
000003f0: 0a41 1ebc a8e5 8c3b 296a 03bd 0cca 363b
-0.041534353 -0.005641536 -0.039290864 0.046314854 0.0076427218 -0.0069691516 -0.025447005 0.0020076467
0.033803955 0.0034047994 0.061055925 -0.0026668028 -0.032070898 0.0063756206 -0.0011394218 0.047973983
-0.03352699 -0.02841007 -0.010752788 0.014167737 0.05261595 0.045941312 0.0481156 0.016462883
0.0076419585 -0.00902404 -0.039425876 -0.03721927 -0.050190687 -0.031034466 -0.025245951 0.03146327
-0.039328158 0.0051377174 -0.004992012 -0.048519682 0.020256897 -0.038358286 0.016389642 0.019707931
-0.042110592 0.021538356 0.006661525 0.005057102 -0.04349945 -0.008514385 0.027103828 -0.031900097
-0.01215056 -0.024999583 -0.022224965 -0.026541479 0.031129653 -0.046379764 0.014311997 -0.0016651914
0.017524587 0.02742338 -0.030157642 0.034303237 0.053511053 -0.020415895 -0.03952788 0.0066359066
-0.036278713 0.048286345 -0.018838162 0.013741066 0.031934258 0.07744864 0.038390044 0.024820073
0.04094188 0.06838302 0.09217826 0.019624345 0.034970682 0.04248928 -0.034012374 -0.04843873
0.04290671 0.024344578 0.04595455 0.03952054 0.03493608 -0.008754057 -0.042497408 -0.046121135
0.021932835 -0.04382812 -0.0078125475 -0.0056989435 -0.002675376 -0.014448655 0.013084275 0.021504393
-0.0367375 -0.04426631 0.0333838 0.03101517 0.029141111 -0.05379982 0.0009318847 -0.0068221493
-0.050627213 -0.06488357 -0.041617725 0.024581432 -0.007167022 0.028700987 -0.03873417 -0.037508912
-0.054105457 -0.027005231 -0.06965973 0.0021365827 0.023941563 0.004367677 -0.022661295 -0.014371496
0.0048351106 -0.001590289 0.015470241 -0.020125484 0.028932253 -0.040354617 0.019837325 -0.032754295
-0.03154185 0.0026055383 -0.052296158 -0.009707378 0.02988972 -0.0057281246 0.058689136 -0.04088819
0.018824782 -0.06547596 -0.007115519 -0.03667617 0.046088386 0.024767602 0.01509403 0.041925646
0.03189824 0.08458831 -0.006014935 0.027082598 0.049943555 0.059287254 -0.04879835 -0.05034801
-0.0065703057 0.03968623 -0.037849363 -0.017487764 -0.04066727 -0.025630333 -0.049559668 -0.046285894
-0.04439104 -0.043559644 0.023117142 -0.00564619 -0.035612043 0.012656376 -0.042070147 0.012733601
-0.002472389 -0.03214196 0.026027523 0.009187157 0.038059838 -0.031859785 0.06361444 0.07199716
0.02380571 0.013278433 0.0047245785 0.07571152 -0.024657037 -0.050849583 0.0027537027 0.020415915
-0.0107198 0.059457213 0.022501327 -0.04613761 -0.006245262 0.0020201644 0.06503367 0.01428078
0.018309262 -0.012825303 0.067580074 0.022453701 0.04689618 -0.006650452 0.011180827 0.14181401
0.03896462 -0.023375994 0.018477201 0.01796575 0.043553207 0.016000178 0.0012085123 -0.032764688
-0.01392412 -0.00920286 -0.009625256 0.0038376406 -0.022615371 0.047169767 -0.012739504 0.0151806725
0.016427055 -0.03236794 0.03389942 -0.017697433 0.030794527 -0.023149258 -0.035157666 0.008868195
0.021007583 0.04438164 0.021169966 0.025674453 -0.029933214 0.034935363 -0.017041665 -0.028983152
-0.013380367 0.051976595 0.0052534994 0.06281053 -0.032114595 -0.010004586 0.04836343 0.047244743
0.03195061 0.026944438 0.0087019205 -0.02202325 -0.03009956 0.040627062 -0.021956656 0.037863024
0.04023556 0.025584372 0.04774727 0.023763362 -0.009659061 0.004299838 -0.032083664 0.0027891425

fc1.bias f4 [120]
00000000: 346e 8a3d c340 4d3b b176 693e cdaf 753d
00000010: a6d8 1bbc 2693 483e 4455 21bd 7faa 37bd
00000020: fbe8 ca3d 8fe6 893c 91bb 1cbc 258d 1f3e
00000030: 6af6 85bc 6803 0c3d 5241 563c d8ea 033b
00000040: bb75 e0bc dd09 4dbb eb97 833c 5e9a 17ba
00000050: 855d b63b 7c9c 243e e16d fe3d fa32 473d
00000060: b8bd 86bb 51a3 1e3d 4f25 aa3d a025 a93d
00000070: ca54 74bd 948a 2d3c 6392 613e eac8 fabd
00000080: 2325 93bc 6965 20bc c5f0 e63d 3ff4 d1bd
00000090: 69c8 89bc 944e 24bd e20a 40bd be86 003b
000000a0: fdc8 35be 08ca a2bd 51df 233e ffef 3e3d
000000b0: ec97 f1bd 3579 813d 77c8 fdbc c25a f7bb
000000c0: ae3f b93d f5f2 363b 410d 33bd 329a 9e3e
000000d0: cf6a b5bd 1e85 8e3c 340d e3bc e6c1 343e
000000e0: a6cc cbba e412 c13d 9816 db3d 02da b53c
000000f0: 5ff2 da3d 0d5c 77bc 14cf 9abd e3e4 823e
00000100: e1a6 06bd 0d95 3d3d 5333 29bd 18e8 23bd
00000110: 2421 d1bc 2580 ae3d a868 4bbc ed1d aebc
00000120: 369f 263d 897c 313e 8bb2 2a3d 326f 9c3d
00000130: 8601 fa3a bf84 e8bc 25c7 083d 1edf 013e
00000140: 4e52 e1bd f4c4 9f3a e8db 7d3c a468 953d
00000150: 79c2 0dbd 5203 343d 895e 063d 346a b23d
00000160: 1aa2 b83c 4935 133c ec12 1ebc c1d2 c03c
00000170: 2215 acbc 2a9e f0bd e7cb 103e 0990 713b
00000180: 3641 0c3d c1d9 343b 9cfe b5bd b711 8f3d
00000190: 44cc 1c3d 611c fdbb 9714 3cbd b7ee 3fbd
000001a0: 6eec ba3c c10a 533a 1097 013c 7ebf 14bd
000001b0: f8b1 05bc aa9f 29bd 7a9a e03b 4e6a 673e
000001c0: 58fa 873e 5ce6 2abd 53bb 43bb 5e5c 08bc
000001d0: ac95 42bd 3480 813b c9e8 da3d 921b c53d
0.06759301 0.0031319119 0.22799183 0.05998211 -0.009512102 0.19587383 -0.039387956 -0.044840332
0.09907719 0.016833572 -0.009566204 0.15581186 -0.016352851 0.034182936 0.013077097 0.0020128991
-0.027399888 -0.0031286397 0.016063651 -0.00057831954 0.0055653476 0.16075319 0.124233015 0.0486326
-0.0041119717 0.03872997 0.08307897 0.082591295 -0.059651174 0.010592122 0.22028498 -0.122453526
-0.017962044 -0.009789803 0.11276392 -0.10251664 -0.016819196 -0.040114 -0.04688538 0.0019611563
-0.17752452 -0.07948691 0.16003157 0.046615597 -0.11796555 0.063219465 -0.030979378 -0.007548661
0.09045349 0.002791581 -0.04371381 0.30977017 -0.08858263 0.01739746 -0.027716257 0.17652091
-0.0015548661 0.09427431 0.10697669 0.02219868 0.1069076 -0.01509763 -0.07559028 0.25565252
-0.032873992 0.046284724 -0.041308712 -0.040016264 -0.025528498 0.085205354 -0.012415089 -0.021254504
0.04067918 0.17332663 0.041674178 0.07638396 0.001907394 -0.02838361 0.033393044 0.12682769
-0.110020265 0.0012189434 0.015494324 0.07295349 -0.03460929 0.04394848 0.032805 0.08711663
0.022538234 0.008984872 -0.009648066 0.023537995 -0.02100617 -0.117489174 0.14140283 0.0036859533
0.034241877 0.0027595612 -0.088864535 0.06985801 0.03828074 -0.0077243303 -0.045918074 -0.046858516
0.022817817 0.00080506137 0.007909551 -0.036315434 -0.008160107 -0.041412033 0.0068543525 0.22599146
0.26558185 -0.041723594 -0.0029866293 -0.008322803 -0.04750602 0.0039520506 0.106889315 0.09624399

fc2.weight f4 [84, 120]
00000000: b47b 4d3d 4c5b b93d 13ee 59bd ecdc 6abd
00000010: 8f37 a9bd a758 ad3d e0a8 403d aae4 413a
00000020: 5412 29bd 8868 023c 443b 6bbc 9b4d c43d
00000030: 545b 903d 573d c6bd dac0 253d c5ae 42bd
00000040: a2d8 a13d 8f90 c43b 8b57 d43b 25d9 f43c
00000050: 2d04 38bd 4465 c43d a1fe 93bd 65a5 313d
00000060: e463 f33d 0878 0fbd 3265 22bd 0d6b a63d
00000070: 4393 943d 5541 103d cb44 6b3d f8dc 61bc
00000080: a68d 8fbd 2b3c 703d 4321 f4bc c42c afbc
00000090: 665d 133d 9a47 95bd 4559 0cbd c078 90bd
000000a0: 84b5 863c 19db 67bd 03f8 23bb 6462 eb3c
000000b0: cd7f 9f3c 471f 313d 0582 0c3d 400e 18bd
000000c0: 1af3 04bd 6d5c b1bc bc63 803d 384c 5f3d
000000d0: e729 c7bc 0888 0b3d 7098 fe3c c695 b13d
000000e0: e031 87bb 254b 17bd 5921 493d 987a 2b3d
000000f0: 5425 c5bd ea01 9a3c a76c 0039 f008 89bc
00000100: e397 193d 160f f5bc 7f66 4dbd 7de8 7a3d
00000110: 5e30 f7bc a8ea b7bd 23e9 c0bd e87b 443d
00000120: 3abd b73b f6ca ef3d 9da6 af3b 1e14 20bd
00000130: 7f26 d0bd 7adb 53bc ff16 7f3d 5f1d e3bc
00000140: 0b20 0dbe bdd3 89bd 25c0 30bd a6cd 09bd
00000150: 6134 153d 9936 d03d 86ee 5f3d 3ca8 a23c
00000160: 5aaf a13d be30 9cbd 98b2 5bbd 53db 123d
00000170: 0c9d f5bc a5fc c03d fa9b cb3d c199 a2bc
00000180: 66c2 bbbd 900a b73d 52ed 893c f9c3 fbbc
00000190: deae 7f3d 2a97 29bc 43e5 c63d 85ac d7bb
000001a0: d461 7cbb d67d 533b fae2 e6bd fcbd 043b
000001b0: 09ec ca3c 4a21 ad3d 1810 873c bec4 96bd
000001c0: 8aff 003e 46a5 a03d 7a91 d33b 313f 31bd
000001d0: cfcf d93b 5dc6 543c 203d 2e3d 520b 0d3d
000001e0: 7f46 bc3d 3b6c 233c 783b 643d 9471 a43d
000001f0: fadc babc 6794 873c b684 b73d 4cbd 33bd
00000200: e5f9 613a 341c 113d 324c bb3b b7c4 3f3d
00000210: b81d 45bd 2667 7abd f915 973d 6716 0f3c
00000220: 3fac a6bd 5d64 073d 81c0 37bd 7dac a93d
00000230: 8cf1 28bd 037d c5bd acf1 873d dc6e 03bb
00000240: 174c 033d f251 4bbd 9b89 73bd 727e 193e
00000250: 995d aa3b f01b a73d 83a2 d0bd 8047 653d
00000260: 3beb 9fbc 65aa ed3c c6d3 d6bd d7ec e83d
00000270: 8468 cabc 4299 d6bc 35ef 8abd ebc9 2a3c
00000280: fff5 a2bd 4aa4 b43d c5c1 6cbd 4cfa 74bb
00000290: ba05 cd3d 9d8b 14bd 6604 ae3d d5fe 68bb
000002a0: 95ff 373b e52d eabc 76b7 5d3c ae05 c33c
000002b0: 69bb 15bd 6e21 cebc 6d7f 833d 75d7 f5bc
000002c0: 5baa 80bd e7c8 17bd 3eaa c4bc 712a 9e3d
000002d0: 8a24 2a3d 21aa 603d 7c04 623c ab34 e1bc
000002e0: f236 46bd 4e06 20bd c0a3 3c3c 948c 02bd
000002f0: d800 c03d 97f6 763d 1ce7 82bd 678e 9b3d
00000300: fe2b 99bd 6d0e f43d bb30 f93b 5761 b8bd
00000310: 4ef4 a6bc 9026 80bd 2249 abbc a21a c23d
00000320: 0903 88bd e7e1 00bd 254b b63d c031 5dbb
00000330: f994 98bc 2124 6f3c 6917 0d3d 8535 0cbd
00000340: 6dda ae3d bdfc ee3c e913 98bd 43b2 b4bc
00000350: a4f3 c03b be08 e03d 4474 0cbd bb11 cdbd
00000360: 31de 97bd acdd 8c3d e509 803b 2bbe 983d
00000370: e8b4 9b3d 5723 e8bc ee64 8c3d 58d5 a7bc
00000380: d694 053d 8961 f03d 28d9 0d3d 96c0 39bd
00000390: b723 8cbd 3330 4fbd 1c0e c63c a312 113d
000003a0: 10ba b93d 1dac 2f3d 3091 f33d ec2e 473c
000003b0: 4d1b db3d 0a01 1fbc 5b47 85bd e2d8 07be
000003c0: 3fa9 383d b252 a0bd c9b5 8a3d a526 74bd
000003d0: ef81 97bc 3a1e 723d 93a2 173d 8d7d 813b
000003e0: b52f 6dbc b69a 5e3c 40ea 80bd 6c49 c4bd
000003f0: 04ba 85bc 1c2b 183d 598d 3c3d c29d 7c3d
0.0501668 0.090506166 -0.05320556 -0.057339594 -0.0826255 0.08464175 0.04703605 0.00073964393
-0.041277245 0.0079594925 -0.014357392 0.095851146 0.070486695 -0.096796684 0.04046712 -0.047529954
0.079026476 0.005998678 0.0064801625 0.029888699 -0.044925857 0.095896274 -0.07226301 0.043370623
0.11884287 -0.03502658 -0.03964729 0.08125887 0.072546504 0.035218555 0.057438653 -0.013785593
-0.07009439 0.05865113 -0.029801017 -0.02138365 0.035977744 -0.072890475 -0.03426482 -0.07054281
0.016443975 -0.056605432 -0.0025019653 0.02873344 0.01947012 0.04324272 0.034303684 -0.037122965
-0.032458402 -0.021650517 0.06269023 0.054516047 -0.024311973 0.034065276 0.031078547 0.08671145
-0.0041258186 -0.036936898 0.04910407 0.04186496 -0.096262604 0.01879974 0.00012247507 -0.016727895
0.037498366 -0.02991442 -0.050146576 0.061256874 -0.03017443 -0.08980304 -0.09419467 0.04796973
0.0056072744 0.117086336 0.005360438 -0.039081685 -0.101635925 -0.012930745 0.06227779 -0.027723966
-0.13781755 -0.06729839 -0.043151993 -0.033643387 0.036426906 0.10166664 0.054670833 0.019855611
0.07894774 -0.07626484 -0.053637117 0.035853695 -0.029982112 0.09423188 0.099418595 -0.019848706
-0.09167938 0.089375615 0.016836796 -0.030733095 0.062422626 -0.010350982 0.09711697 -0.006581845
-0.0038510459 0.003227105 -0.11273761 0.002025484 0.024770753 0.08453615 0.016487166 -0.07361744
0.1259748 0.078440234 0.006456551 -0.043273155 0.006647087 0.012986747 0.042538762 0.034434624
0.091931336 0.009974535 0.055720776 0.08029476 -0.022810448 0.016550256 0.089608595 -0.0438817
0.0008620306 0.035427287 0.0057158703 0.04681846 -0.048124045 -0.061133526 0.07377238 0.0087333685
-0.08138322 0.0330547 -0.04486132 0.08284853 -0.041245982 -0.09642985 0.06637892 -0.002005509
0.032054987 -0.049638696 -0.059457403 0.14989641 0.005199146 0.081596255 -0.10187247 0.05597639
-0.019521346 0.029011915 -0.10489611 0.113732986 -0.02470804 -0.026196126 -0.06783906 0.010424118
-0.07957076 0.08820398 -0.05780198 -0.0037380634 0.10010858 -0.036265958 0.08496933 -0.0035552282
0.0028075923 -0.028586337 0.01353251 0.02380642 -0.03655568 -0.025162425 0.06420789 -0.030009964
-0.06282493 -0.03705683 -0.024006959 0.07722939 0.041538753 0.054849748 0.0137950145 -0.027490934
-0.048392244 -0.039068513 0.01151365 -0.031872347 0.09375161 0.06029376 -0.06391737 0.075955205
-0.07479094 0.11916814 0.007604686 -0.09002941 -0.020380165 -0.06257355 -0.020908896 0.09477736
-0.06641204 -0.031465437 0.089010514 -0.0033751577 -0.018625723 0.014596016 0.034446154 -0.034230728
0.08537755 0.02917325 -0.074256726 -0.022057658 0.005888419 0.109391674 -0.034290567 -0.100131474
-0.074154265 0.06878218 0.0039074295 0.07458147 0.076028645 -0.028337164 0.06855188 -0.020487472
0.032612644 0.11737353 0.034630924 -0.04534968 -0.068427496 -0.050583076 0.02417665 0.035418164
0.09068692 0.04288875 0.11892927 0.012157183 0.106985666 -0.009704838 -0.065077506 -0.13266328
0.04508328 -0.07828273 0.06772954 -0.059607167 -0.018494574 0.059110858 0.037020277 0.0039517344
-0.014476706 0.013586691 -0.0629468 -0.095843166 -0.01632405 0.037150487 0.046033237 0.061673887

fc2.bias f4 [84]
00000000: d9bb 66bc dcf0 bbbd af79 313e 4386 b2bd
00000010: 0248 5fbd b68e 5a3e 012e 65bd f010 dc3d
00000020: f704 babd adea db3c 3288 2f3e d407 60bd
00000030: 33de 433e c17d b9bc 712c 103f 566e e8bc
00000040: 6d33 073e 8670 24bc 1dc9 4d3e 841c 693d
00000050: 20c0 4f3d 82ed adbd 6f14 833c 3226 22bd
00000060: 6591 57bc 7ea4 493c c70c b73e d1ac 4fbe
00000070: c649 75bd a82d 5b3d 9ac6 1bbc eac5 06bc
00000080: 6e55 233c e052 273f 376f bbbc 24b8 f4bd
00000090: 2909 b3bd c3cf 943c dc35 b1bc f260 cbbd
000000a0: d72e 9e3d 65ed dabc 9d63 133c 1883 e9bc
000000b0: ebee 1e3e d57e eabc f60a 743d 493c 0ebd
000000c0: d465 77bd db3b 2dbd be30 e03d 0f28 d5bc
000000d0: ad47 893e 14d0 cd3d 0505 083e 644b b3bc
000000e0: 4bc2 b83e 7967 39bc 753c 8f3c 2ead 65bd
000000f0: 4b4b d5bd c6f4 0fba 98b6 e13d 10e1 a33e
00000100: 8cb5 bbbc 4ebf 663e f70f 44bd 0cf9 fe3c
00000110: e8b6 0f3d 5f10 dcbd 7ed2 bb3d c9fe 9fbc
00000120: 3353 58bd 45cf cdbd ccda 1d3e 9a69 bebd
00000130: 24ac a2bd 92e7 393c 5485 1cbd d267 063d
00000140: e633 a7bd 9826 093d 3b5b 3f3d 5aa8 8f3d
-0.014082872 -0.091768 0.17331575 -0.08717015 -0.05451203 0.21343502 -0.055952076 0.10745418
-0.09082978 0.0268453 0.17141798 -0.054694965 0.19127731 -0.022642972 0.5631781 -0.028372925
0.13203211 -0.010036593 0.2009625 0.05691196 0.050720334 -0.08492567 0.016000954 -0.039587207
-0.013157223 0.012307284 0.35751936 -0.20280768 -0.05988481 0.053510338 -0.0095077995 -0.008225897
0.0099690985 0.6536083 -0.02288018 -0.119491845 -0.087419815 0.018165475 -0.021632127 -0.099306
0.07723778 -0.026724527 0.008995918 -0.028504893 0.15520827 -0.028624931 0.059580766 -0.03472546
-0.060399845 -0.04229341 0.10946797 -0.026020078 0.26812497 0.100494534 0.13283165 -0.021886535
0.36085734 -0.011316174 0.017484883 -0.05607336 -0.104147516 -0.0005491491 0.11021155 0.32007647
-0.022913717 0.22533914 -0.047866788 0.031124614 0.035086542 -0.1074531 0.091710076 -0.01953067
-0.05281372 -0.10049299 0.15415496 -0.09297486 -0.079429895 0.011346715 -0.03821309 0.032813855
-0.08164196 0.03348407 0.046717864 0.070145324

fc3.weight f4 [10, 84]
00000000: dd41 2a3d df21 033e c504 cb3e 11f7 4c3d
00000010: 3509 9e3d 5710 973e 9d07 c73d e1cb 1dbe
00000020: 12bc 79bb 6161 2cbd 2c54 94bd 961c a3bc
00000030: d037 80be 6ce8 013e 5dc9 2e3e 3f68 993d
00000040: 4943 843e 14ba a83d e01c 95be b6f6 5abe
00000050: 90b0 67bd 108e 9bbb d6ec 84bd 8416 203c
00000060: 06c4 36bd 30ea 1d3e 74ca 573e e446 113e
00000070: daea aa3d e498 63bd 146f 953d 41af c7bd
00000080: d42b 50bc 54c2 34bd 929a ac3d 279e 4c3e
00000090: db3c 93bd c2c6 e73c 97ca 18bc 2d7c 1dbd
000000a0: e7e3 d2bd 9d31 d3bc 56cb bcbd 0d65 37bc
000000b0: ca8b 1fbe edb6 923d 8e58 a93d b269 203d
000000c0: 0bcb 48bd 01d9 8fbb ef97 3e3e 4456 023d
000000d0: d3ca 643e 03c0 9e3d a6d1 4e3e ce8a b13d
000000e0: aa29 93be 7b57 1c3d af40 da3d d01d 91bd
000000f0: 8ba1 543e 0ce0 8ebd ff6a f43d 0d3e f23d
00000100: 60ac d4bd 1ad0 5abe 4674 cbbd 99b0 783e
00000110: 095a fb3d 52cc f43d eb5d 2c3d d750 adbd
00000120: 9f89 003d c08c f73d b2a6 903e ad32 98bd
00000130: df6c 70ba 5fda 153d 9376 cfbd 79d0 2d3d
00000140: 72b0 debd b6f7 13be 4a52 1c3d a207 29be
00000150: 8382 eabc cbcb 683e 0256 0abd 5071 9b3b
00000160: 2d68 3ebd 84d9 6abe 8f75 d7bd dd27 04be
00000170: c94d 58bd 40f7 f63c 2ed9 08be 6841 673d
00000180: 36b2 9e3c 0cf9 4fbd 48b1 d2be 177e 50bd
00000190: 5156 edbd b18d a53d ec47 b73c ac7a 4abc
000001a0: b260 a2bd eaf3 d43c 0fb8 713d 42f5 88bd
000001b0: 8c55 5f3c a316 c2bd 62d2 7abe f78f da3e
000001c0: cc9d 213e e0f5 923c d693 cf3d 8d35 c0bd
000001d0: 7abf dcbd 4096 fabe f39f afbc 751d ba3d
000001e0: 3294 a0bd 5041 013e c8f2 03be 342e 403e
000001f0: 7edc debd 83ae 61bd c25c f0bb bbbe 073e
00000200: 3dab 76bd 934a df3d 36c3 a53c 405e 343e
00000210: 707a 483c f6d8 85bb 6761 27bd bad0 16bd
00000220: 05b9 6ebd f39c 983c 30a7 eabd a443 d83d
00000230: bafa 64be ce17 01be c505 1c3d c9be 503d
00000240: 840c 813e a742 b73d 2ad3 003e c145 81be
00000250: 352d 203e 74c2 50bd 2308 f5bc 1093 1ebe
00000260: 1604 213e 5562 463e 732e f6bd 3484 3e3d
00000270: 1e5c 7c3d b964 ac3d 495f 6dbd abaa ba3d
00000280: b3aa 833c 060d 33bd 3900 b5bd edd1 3dbe
00000290: 2755 a03c e004 af3d fb1e 8d3d 21dc 913d
000002a0: 9587 f6bd 2585 e8bd 3221 75bd d2b5 98bd
000002b0: 9c7a aa3d e4e8 fd3c 8750 36bd 175a 3c3d
000002c0: 5cc0 b83d eb4c 623d a3c9 0a3e 5e1c 23bd
000002d0: b580 d33a be66 94bc 03ec a63e e104 a3bd
000002e0: 6ba9 ab3d d1b7 3dbe 16f7 2abd d34c ecbc
000002f0: 4365 2e3c fd6c d63d 6876 ccbc a491 f23c
00000300: 4967 80bd 0f2b b93d 0b98 873e e7fb 52be
00000310: 85a0 1e3c 0161 a03d 206e ad3d 85a1 a63c
00000320: 8371 ad3d 0e15 c63e 803d c63d 76d1 0bbe
00000330: 1f45 973d 68d5 60bd ac7d e5bd bc1f 5dbd
00000340: 3a07 c73c 574f 573a db27 01bd 769e 363d
00000350: 6d5b 12be 3959 0abe 03b5 113d 67ca 4cbe
00000360: 2dbe 36bd 52b9 dbbc 4b65 1d3e cdaa 863c
00000370: dd0d 143d 7bec 04bc e794 273e 188a 06bd
00000380: 7eb2 243d 53fc 7db7 2c0c 6b3d 0513 9e3c
00000390: 4acc fcbb 2ab1 de3d 93d0 e4bd db21 863e
000003a0: 34fc 48bd 26ef b63d 6dc7 c4bd 1d74 e83d
000003b0: d331 d7bc 20ae 04bd 6b64 b63b a95e 693c
000003c0: afee c33d 15c0 70bd 7045 ef3b cfd3 a7bd
000003d0: 5ae6 5c3c ce0a 1b3e defd 8a3d fdc0 ab3d
000003e0: 91cc a2bd dd76 d7bc 4aee 47be 9a36 863d
000003f0: 3558 01be d8be 3abc eaf1 54be 09d8 c73c
0.04156672 0.1280589 0.39652076 0.05004031 0.077166 0.29504654 0.09718249 -0.15409805
-0.0038106483 -0.042085055 -0.07242617 -0.019911092 -0.25042582 0.12686318 0.17069001 0.074905865
0.25832585 0.082386166 -0.29123592 -0.21383175 -0.056564867 -0.00474716 -0.06490485 0.009770993
-0.044620536 0.15421367 0.21073323 0.14187199 0.08345576 -0.05556573 0.07296577 -0.09750224
-0.012705762 -0.04413064 0.084279194 0.19982205 -0.07189342 0.028293017 -0.009325645 -0.0384485
-0.10297375 -0.025780493 -0.09218471 -0.011193526 -0.15580669 0.071637966 0.082688436 0.0391633
-0.049021762 -0.0043898826 0.18612646 0.03182055 0.22342996 0.07751467 0.20197162 0.08669053
-0.28742725 0.038169365 0.10656869 -0.070857644 0.20764749 -0.06976327 0.119344704 0.118282415
-0.103844404 -0.21368447 -0.09934287 0.24286117 0.12273032 0.119530335 0.042081755 -0.084626846
0.031381246 0.12087393 0.28252178 -0.07431541 -0.00091714965 0.036585208 -0.10130038 0.042435143
-0.10873498 -0.14449963 0.038164414 -0.16506818 -0.028626686 0.22733991 -0.03377343 0.0047437325
-0.04648607 -0.22934538 -0.105204694 -0.12905832 -0.052808557 0.030147195 -0.13364097 0.05645886
0.019372087 -0.05077462 -0.4115088 -0.0509015 -0.11588729 0.08083666 0.022373162 -0.012358349
-0.079285994 0.025995214 0.059013423 -0.06687404 0.013631236 -0.09476974 -0.24494317 0.4268796
0.15782851 0.017939508 0.10135619 -0.09385214 -0.10778709 -0.48942757 -0.021438574 0.0908765
-0.07840766 0.12622571 -0.12885582 0.18767625 -0.10881899 -0.055098068 -0.0073352763 0.13256352
-0.0602219 0.10902896 0.020234685 0.17614079 0.012236223 -0.0040847016 -0.040864374 -0.03682015
-0.058281917 0.018629527 -0.1145767 0.105597764 -0.2236127 -0.12606737 0.03809144 0.050963197
0.2520486 0.0894826 0.12580553 -0.2524853 0.15642245 -0.050966695 -0.029911106 -0.15485787
0.15724215 0.19373448 -0.12020578 0.046512797 0.061611287 0.08417649 -0.0579522 0.091145836
0.016072607 -0.043713592 -0.08837933 -0.18537112 0.019571854 0.08545852 0.06890675 0.071220644
-0.12037579 -0.1135352 -0.05984611 -0.074565545 0.08324167 0.03099484 -0.04451039 0.045984354
0.09021065 0.055249136 0.13553481 -0.039821975 0.001613638 -0.018115398 0.32601938 -0.07959915
0.08381923 -0.18527152 -0.041739546 -0.028845226 0.01064426 0.104700066 -0.024958804 0.029610462
-0.062697 0.09041416 0.26483187 -0.20603906 0.0096818255 0.07831002 0.0846827 0.02034069
0.08468916 0.38687938 0.09679699 -0.13654122 0.07386231 -0.05489102 -0.11205611 -0.053985342
0.024295438 0.00082134217 -0.03153215 0.044584714 -0.14292689 -0.13510598 0.035573017 -0.19999085
-0.04461496 -0.026821766 0.15370671 0.016438866 0.036146034 -0.008113022 0.16365395 -0.03284654
0.040209286 -1.5138724e-05 0.057384655 0.019296179 -0.007714783 0.10873635 -0.11172595 0.26197705
-0.049068645 0.08932333 -0.0960835 0.11350272 -0.026268875 -0.03239262 0.00556617 0.01424376
0.0956701 -0.058776934 0.0073019788 -0.08194696 0.0134826545 0.1514084 0.067867026 0.08386419
-0.07949174 -0.026301796 -0.19524494 0.06553383 -0.12631305 -0.01139804 -0.20795408 0.024395006

fc3.bias f4 [10]
00000000: 3f98 96be ce8f 12bf d19c 5d3e 4326 413e
00000010: cb4c 103f 5d3a 7d3c 6ffd eb3e 8ba2 1fbe
00000020: 6d75 0abe 7745 c4be
-0.2941303 -0.5725068 0.21641852 0.18862252 0.56367177 0.015455809 0.46091792 -0.15589349
-0.13521357 -0.38334247
